…
I1121 02:05:43.501078  5092 solver.cpp:70] Creating training net from net file: .train.prototxt
I1121 02:05:43.502023  5092 net.cpp:42] Initializing net from parameters: 
name: "FCN"
state {
  phase: TRAIN
}
layer {
  name: "raw_data"
  type: "SegmentationData"
  top: "raw_data"
  include {
    phase: TRAIN
  }
  transform_param {
    mirror: true
  }
  segmentation_data_param {
    source: "data.txt"
    shuffle: true
    mean_value: 104.00699
    mean_value: 116.66877
    mean_value: 122.67892
    batch_size: 10
    has_manipulation_data: false
  }
}
layer {
  name: "slice_data"
  type: "Slice"
  bottom: "raw_data"
  top: "data"
  top: "label"
  slice_param {
    slice_point: 3
    axis: 1
  }
}
layer {
  name: "conv1_1"
  type: "Convolution"
  bottom: "data"
  top: "conv1_1"
  param {
    lr_mult: 1
    decay_mult: 1
  }
  param {
    lr_mult: 2
    decay_mult: 0
  }
  convolution_param {
    num_output: 64
    pad: 100
    kernel_size: 3
    engine: CAFFE
  }
}
layer {
  name: "relu1_1"
  type: "ReLU"
  bottom: "conv1_1"
  top: "conv1_1"
}
layer {
  name: "conv1_2"
  type: "Convolution"
  bottom: "conv1_1"
  top: "conv1_2"
  param {
    lr_mult: 1
    decay_mult: 1
  }
  param {
    lr_mult: 2
    decay_mult: 0
  }
  convolution_param {
    num_output: 64
    pad: 1
    kernel_size: 3
    engine: CAFFE
  }
}
layer {
  name: "relu1_2"
  type: "ReLU"
  bottom: "conv1_2"
  top: "conv1_2"
}
layer {
  name: "pool1"
  type: "Pooling"
  bottom: "conv1_2"
  top: "pool1"
  pooling_param {
    pool: MAX
    kernel_size: 2
    stride: 2
  }
}
layer {
  name: "conv2_1"
  type: "Convolution"
  bottom: "pool1"
  top: "conv2_1"
  param {
    lr_mult: 1
    decay_mult: 1
  }
  param {
    lr_mult: 2
    decay_mult: 0
  }
  convolution_param {
    num_output: 128
    pad: 1
    kernel_size: 3
    engine: CAFFE
  }
}
layer {
  name: "relu2_1"
  type: "ReLU"
  bottom: "conv2_1"
  top: "conv2_1"
}
layer {
  name: "conv2_2"
  type: "Convolution"
  bottom: "conv2_1"
  top: "conv2_2"
  param {
    lr_mult: 1
    decay_mult: 1
  }
  param {
    lr_mult: 2
    decay_mult: 0
  }
  convolution_param {
    num_output: 128
    pad: 1
    kernel_size: 3
    engine: CAFFE
  }
}
layer {
  name: "relu2_2"
  type: "ReLU"
  bottom: "conv2_2"
  top: "conv2_2"
}
layer {
  name: "pool2"
  type: "Pooling"
  bottom: "conv2_2"
  top: "pool2"
  pooling_param {
    pool: MAX
    kernel_size: 2
    stride: 2
  }
}
layer {
  name: "conv3_1"
  type: "Convolution"
  bottom: "pool2"
  top: "conv3_1"
  param {
    lr_mult: 1
    decay_mult: 1
  }
  param {
    lr_mult: 2
    decay_mult: 0
  }
  convolution_param {
    num_output: 256
    pad: 1
    kernel_size: 3
    engine: CAFFE
  }
}
layer {
  name: "relu3_1"
  type: "ReLU"
  bottom: "conv3_1"
  top: "conv3_1"
}
layer {
  name: "conv3_2"
  type: "Convolution"
  bottom: "conv3_1"
  top: "conv3_2"
  param {
    lr_mult: 1
    decay_mult: 1
  }
  param {
    lr_mult: 2
    decay_mult: 0
  }
  convolution_param {
    num_output: 256
    pad: 1
    kernel_size: 3
    engine: CAFFE
  }
}
layer {
  name: "relu3_2"
  type: "ReLU"
  bottom: "conv3_2"
  top: "conv3_2"
}
layer {
  name: "conv3_3"
  type: "Convolution"
  bottom: "conv3_2"
  top: "conv3_3"
  param {
    lr_mult: 1
    decay_mult: 1
  }
  param {
    lr_mult: 2
    decay_mult: 0
  }
  convolution_param {
    num_output: 256
    pad: 1
    kernel_size: 3
    engine: CAFFE
  }
}
layer {
  name: "relu3_3"
  type: "ReLU"
  bottom: "conv3_3"
  top: "conv3_3"
}
layer {
  name: "pool3"
  type: "Pooling"
  bottom: "conv3_3"
  top: "pool3"
  pooling_param {
    pool: MAX
    kernel_size: 2
    stride: 2
  }
}
layer {
  name: "conv4_1"
  type: "Convolution"
  bottom: "pool3"
  top: "conv4_1"
  param {
    lr_mult: 1
    decay_mult: 1
  }
  param {
    lr_mult: 2
    decay_mult: 0
  }
  convolution_param {
    num_output: 512
    pad: 1
    kernel_size: 3
    engine: CAFFE
  }
}
layer {
  name: "relu4_1"
  type: "ReLU"
  bottom: "conv4_1"
  top: "conv4_1"
}
layer {
  name: "conv4_2"
  type: "Convolution"
  bottom: "conv4_1"
  top: "conv4_2"
  param {
    lr_mult: 1
    decay_mult: 1
  }
  param {
    lr_mult: 2
    decay_mult: 0
  }
  convolution_param {
    num_output: 512
    pad: 1
    kernel_size: 3
    engine: CAFFE
  }
}
layer {
  name: "relu4_2"
  type: "ReLU"
  bottom: "conv4_2"
  top: "conv4_2"
}
layer {
  name: "conv4_3"
  type: "Convolution"
  bottom: "conv4_2"
  top: "conv4_3"
  param {
    lr_mult: 1
    decay_mult: 1
  }
  param {
    lr_mult: 2
    decay_mult: 0
  }
  convolution_param {
    num_output: 512
    pad: 1
    kernel_size: 3
    engine: CAFFE
  }
}
layer {
  name: "relu4_3"
  type: "ReLU"
  bottom: "conv4_3"
  top: "conv4_3"
}
layer {
  name: "pool4"
  type: "Pooling"
  bottom: "conv4_3"
  top: "pool4"
  pooling_param {
    pool: MAX
    kernel_size: 2
    stride: 2
  }
}
layer {
  name: "conv5_1"
  type: "Convolution"
  bottom: "pool4"
  top: "conv5_1"
  param {
    lr_mult: 1
    decay_mult: 1
  }
  param {
    lr_mult: 2
    decay_mult: 0
  }
  convolution_param {
    num_output: 512
    pad: 1
    kernel_size: 3
    engine: CAFFE
  }
}
layer {
  name: "relu5_1"
  type: "ReLU"
  bottom: "conv5_1"
  top: "conv5_1"
}
layer {
  name: "conv5_2"
  type: "Convolution"
  bottom: "conv5_1"
  top: "conv5_2"
  param {
    lr_mult: 1
    decay_mult: 1
  }
  param {
    lr_mult: 2
    decay_mult: 0
  }
  convolution_param {
    num_output: 512
    pad: 1
    kernel_size: 3
    engine: CAFFE
  }
}
layer {
  name: "relu5_2"
  type: "ReLU"
  bottom: "conv5_2"
  top: "conv5_2"
}
layer {
  name: "conv5_3"
  type: "Convolution"
  bottom: "conv5_2"
  top: "conv5_3"
  param {
    lr_mult: 1
    decay_mult: 1
  }
  param {
    lr_mult: 2
    decay_mult: 0
  }
  convolution_param {
    num_output: 512
    pad: 1
    kernel_size: 3
    engine: CAFFE
  }
}
layer {
  name: "relu5_3"
  type: "ReLU"
  bottom: "conv5_3"
  top: "conv5_3"
}
layer {
  name: "pool5"
  type: "Pooling"
  bottom: "conv5_3"
  top: "pool5"
  pooling_param {
    pool: MAX
    kernel_size: 2
    stride: 2
  }
}
layer {
  name: "fc6"
  type: "Convolution"
  bottom: "pool5"
  top: "fc6"
  param {
    lr_mult: 1
    decay_mult: 1
  }
  param {
    lr_mult: 2
    decay_mult: 0
  }
  convolution_param {
    num_output: 4096
    kernel_size: 7
    engine: CAFFE
  }
}
layer {
  name: "relu6"
  type: "ReLU"
  bottom: "fc6"
  top: "fc6"
}
layer {
  name: "drop6"
  type: "Dropout"
  bottom: "fc6"
  top: "fc6"
  dropout_param {
    dropout_ratio: 0.5
  }
}
layer {
  name: "fc7"
  type: "Convolution"
  bottom: "fc6"
  top: "fc7"
  param {
    lr_mult: 1
    decay_mult: 1
  }
  param {
    lr_mult: 2
    decay_mult: 0
  }
  convolution_param {
    num_output: 4096
    kernel_size: 1
    engine: CAFFE
  }
}
layer {
  name: "relu7"
  type: "ReLU"
  bottom: "fc7"
  top: "fc7"
}
layer {
  name: "drop7"
  type: "Dropout"
  bottom: "fc7"
  top: "fc7"
  dropout_param {
    dropout_ratio: 0.5
  }
}
layer {
  name: "score1"
  type: "Convolution"
  bottom: "fc7"
  top: "score1"
  param {
    lr_mult: 1
    decay_mult: 1
  }
  param {
    lr_mult: 2
    decay_mult: 0
  }
  convolution_param {
    num_output: 2
    kernel_size: 1
    engine: CAFFE
  }
}
layer {
  name: "upscore-hand"
  type: "Deconvolution"
  bottom: "score1"
  top: "upscore-hand"
  param {
    lr_mult: 0
  }
  convolution_param {
    num_output: 2
    bias_term: false
    kernel_size: 64
    stride: 32
  }
}
layer {
  name: "score"
  type: "Crop"
  bottom: "upscore-hand"
  bottom: "data"
  top: "score"
}
layer {
  name: "loss"
  type: "SoftmaxWithLoss"
  bottom: "score"
  bottom: "label"
  top: "loss"
  loss_param {
    normalize: false
  }
}
I1121 02:05:43.502182  5092 layer_factory.hpp:74] Creating layer raw_data
I1121 02:05:43.502202  5092 net.cpp:85] Creating Layer raw_data
I1121 02:05:43.502207  5092 net.cpp:339] raw_data -> raw_data
I1121 02:05:43.502215  5092 net.cpp:114] Setting up raw_data
I1121 02:05:43.502221  5092 segmentation_data_layer.cpp:44] Opening file data.txt
…
I1121 02:05:43.567528  5092 segmentation_data_layer.cpp:64] /home/minghuam/Desktop/cockpit/hand_training/raw_data/img/000305.jpg
I1121 02:05:43.570739  5092 segmentation_data_layer.cpp:65] /home/minghuam/Desktop/cockpit/hand_training/raw_data/mask/000305.jpg
I1121 02:05:43.570760  5092 segmentation_data_layer.cpp:69] Total number of image pairs: 1255
I1121 02:05:43.571481  5092 segmentation_data_layer.cpp:114] Shuffle images
I1121 02:05:43.589412  5092 segmentation_data_layer.cpp:89] 480,960
I1121 02:05:43.589431  5092 segmentation_data_layer.cpp:97] output data size: 10,4,480,960
I1121 02:05:43.609503  5092 net.cpp:121] Top shape: 10 4 480 960 (18432000)
I1121 02:05:43.609531  5092 layer_factory.hpp:74] Creating layer slice_data
I1121 02:05:43.609587  5092 net.cpp:85] Creating Layer slice_data
I1121 02:05:43.609599  5092 net.cpp:381] slice_data <- raw_data
I1121 02:05:43.609609  5092 net.cpp:339] slice_data -> data
I1121 02:05:43.609628  5092 net.cpp:339] slice_data -> label
I1121 02:05:43.609639  5092 net.cpp:114] Setting up slice_data
I1121 02:05:43.609678  5092 net.cpp:121] Top shape: 10 3 480 960 (13824000)
I1121 02:05:43.609686  5092 net.cpp:121] Top shape: 10 1 480 960 (4608000)
I1121 02:05:43.609691  5092 layer_factory.hpp:74] Creating layer data_slice_data_0_split
I1121 02:05:43.609705  5092 net.cpp:85] Creating Layer data_slice_data_0_split
I1121 02:05:43.609712  5092 net.cpp:381] data_slice_data_0_split <- data
I1121 02:05:43.609720  5092 net.cpp:339] data_slice_data_0_split -> data_slice_data_0_split_0
I1121 02:05:43.609729  5092 net.cpp:339] data_slice_data_0_split -> data_slice_data_0_split_1
I1121 02:05:43.609735  5092 net.cpp:114] Setting up data_slice_data_0_split
I1121 02:05:43.609746  5092 net.cpp:121] Top shape: 10 3 480 960 (13824000)
I1121 02:05:43.609753  5092 net.cpp:121] Top shape: 10 3 480 960 (13824000)
I1121 02:05:43.609760  5092 layer_factory.hpp:74] Creating layer conv1_1
I1121 02:05:43.609769  5092 net.cpp:85] Creating Layer conv1_1
I1121 02:05:43.609776  5092 net.cpp:381] conv1_1 <- data_slice_data_0_split_0
I1121 02:05:43.609783  5092 net.cpp:339] conv1_1 -> conv1_1
I1121 02:05:43.609791  5092 net.cpp:114] Setting up conv1_1
I1121 02:05:43.611378  5092 net.cpp:121] Top shape: 10 64 678 1158 (502479360)
I1121 02:05:43.611398  5092 layer_factory.hpp:74] Creating layer relu1_1
I1121 02:05:43.611409  5092 net.cpp:85] Creating Layer relu1_1
I1121 02:05:43.611416  5092 net.cpp:381] relu1_1 <- conv1_1
I1121 02:05:43.611423  5092 net.cpp:328] relu1_1 -> conv1_1 (in-place)
I1121 02:05:43.611430  5092 net.cpp:114] Setting up relu1_1
I1121 02:05:43.611444  5092 net.cpp:121] Top shape: 10 64 678 1158 (502479360)
I1121 02:05:43.611450  5092 layer_factory.hpp:74] Creating layer conv1_2
I1121 02:05:43.611459  5092 net.cpp:85] Creating Layer conv1_2
I1121 02:05:43.611462  5092 net.cpp:381] conv1_2 <- conv1_1
I1121 02:05:43.611469  5092 net.cpp:339] conv1_2 -> conv1_2
I1121 02:05:43.611476  5092 net.cpp:114] Setting up conv1_2
I1121 02:05:43.613595  5092 net.cpp:121] Top shape: 10 64 678 1158 (502479360)
I1121 02:05:43.613615  5092 layer_factory.hpp:74] Creating layer relu1_2
I1121 02:05:43.613627  5092 net.cpp:85] Creating Layer relu1_2
I1121 02:05:43.613632  5092 net.cpp:381] relu1_2 <- conv1_2
I1121 02:05:43.613639  5092 net.cpp:328] relu1_2 -> conv1_2 (in-place)
I1121 02:05:43.613646  5092 net.cpp:114] Setting up relu1_2
I1121 02:05:43.613653  5092 net.cpp:121] Top shape: 10 64 678 1158 (502479360)
I1121 02:05:43.613661  5092 layer_factory.hpp:74] Creating layer pool1
I1121 02:05:43.613668  5092 net.cpp:85] Creating Layer pool1
I1121 02:05:43.613672  5092 net.cpp:381] pool1 <- conv1_2
I1121 02:05:43.613679  5092 net.cpp:339] pool1 -> pool1
I1121 02:05:43.613687  5092 net.cpp:114] Setting up pool1
I1121 02:05:43.613698  5092 net.cpp:121] Top shape: 10 64 339 579 (125619840)
I1121 02:05:43.613705  5092 layer_factory.hpp:74] Creating layer conv2_1
I1121 02:05:43.613714  5092 net.cpp:85] Creating Layer conv2_1
I1121 02:05:43.613718  5092 net.cpp:381] conv2_1 <- pool1
I1121 02:05:43.613724  5092 net.cpp:339] conv2_1 -> conv2_1
I1121 02:05:43.613733  5092 net.cpp:114] Setting up conv2_1
I1121 02:05:43.614101  5092 net.cpp:121] Top shape: 10 128 339 579 (251239680)
I1121 02:05:43.614115  5092 layer_factory.hpp:74] Creating layer relu2_1
I1121 02:05:43.614125  5092 net.cpp:85] Creating Layer relu2_1
I1121 02:05:43.614130  5092 net.cpp:381] relu2_1 <- conv2_1
I1121 02:05:43.614135  5092 net.cpp:328] relu2_1 -> conv2_1 (in-place)
I1121 02:05:43.614141  5092 net.cpp:114] Setting up relu2_1
I1121 02:05:43.614147  5092 net.cpp:121] Top shape: 10 128 339 579 (251239680)
I1121 02:05:43.614154  5092 layer_factory.hpp:74] Creating layer conv2_2
I1121 02:05:43.614161  5092 net.cpp:85] Creating Layer conv2_2
I1121 02:05:43.614166  5092 net.cpp:381] conv2_2 <- conv2_1
I1121 02:05:43.614172  5092 net.cpp:339] conv2_2 -> conv2_2
I1121 02:05:43.614179  5092 net.cpp:114] Setting up conv2_2
I1121 02:05:43.615032  5092 net.cpp:121] Top shape: 10 128 339 579 (251239680)
I1121 02:05:43.615046  5092 layer_factory.hpp:74] Creating layer relu2_2
I1121 02:05:43.615056  5092 net.cpp:85] Creating Layer relu2_2
I1121 02:05:43.615061  5092 net.cpp:381] relu2_2 <- conv2_2
I1121 02:05:43.615068  5092 net.cpp:328] relu2_2 -> conv2_2 (in-place)
I1121 02:05:43.615077  5092 net.cpp:114] Setting up relu2_2
I1121 02:05:43.615084  5092 net.cpp:121] Top shape: 10 128 339 579 (251239680)
I1121 02:05:43.615088  5092 layer_factory.hpp:74] Creating layer pool2
I1121 02:05:43.615095  5092 net.cpp:85] Creating Layer pool2
I1121 02:05:43.615103  5092 net.cpp:381] pool2 <- conv2_2
I1121 02:05:43.615109  5092 net.cpp:339] pool2 -> pool2
I1121 02:05:43.615116  5092 net.cpp:114] Setting up pool2
I1121 02:05:43.615124  5092 net.cpp:121] Top shape: 10 128 170 290 (63104000)
I1121 02:05:43.615130  5092 layer_factory.hpp:74] Creating layer conv3_1
I1121 02:05:43.615140  5092 net.cpp:85] Creating Layer conv3_1
I1121 02:05:43.615145  5092 net.cpp:381] conv3_1 <- pool2
I1121 02:05:43.615151  5092 net.cpp:339] conv3_1 -> conv3_1
I1121 02:05:43.615159  5092 net.cpp:114] Setting up conv3_1
I1121 02:05:43.616060  5092 net.cpp:121] Top shape: 10 256 170 290 (126208000)
I1121 02:05:43.616080  5092 layer_factory.hpp:74] Creating layer relu3_1
I1121 02:05:43.616088  5092 net.cpp:85] Creating Layer relu3_1
I1121 02:05:43.616093  5092 net.cpp:381] relu3_1 <- conv3_1
I1121 02:05:43.616099  5092 net.cpp:328] relu3_1 -> conv3_1 (in-place)
I1121 02:05:43.616106  5092 net.cpp:114] Setting up relu3_1
I1121 02:05:43.616114  5092 net.cpp:121] Top shape: 10 256 170 290 (126208000)
I1121 02:05:43.616119  5092 layer_factory.hpp:74] Creating layer conv3_2
I1121 02:05:43.616128  5092 net.cpp:85] Creating Layer conv3_2
I1121 02:05:43.616134  5092 net.cpp:381] conv3_2 <- conv3_1
I1121 02:05:43.616142  5092 net.cpp:339] conv3_2 -> conv3_2
I1121 02:05:43.616147  5092 net.cpp:114] Setting up conv3_2
I1121 02:05:43.617815  5092 net.cpp:121] Top shape: 10 256 170 290 (126208000)
I1121 02:05:43.617830  5092 layer_factory.hpp:74] Creating layer relu3_2
I1121 02:05:43.617841  5092 net.cpp:85] Creating Layer relu3_2
I1121 02:05:43.617846  5092 net.cpp:381] relu3_2 <- conv3_2
I1121 02:05:43.617852  5092 net.cpp:328] relu3_2 -> conv3_2 (in-place)
I1121 02:05:43.617858  5092 net.cpp:114] Setting up relu3_2
I1121 02:05:43.617866  5092 net.cpp:121] Top shape: 10 256 170 290 (126208000)
I1121 02:05:43.617871  5092 layer_factory.hpp:74] Creating layer conv3_3
I1121 02:05:43.617880  5092 net.cpp:85] Creating Layer conv3_3
I1121 02:05:43.617887  5092 net.cpp:381] conv3_3 <- conv3_2
I1121 02:05:43.617893  5092 net.cpp:339] conv3_3 -> conv3_3
I1121 02:05:43.617900  5092 net.cpp:114] Setting up conv3_3
I1121 02:05:43.620589  5092 net.cpp:121] Top shape: 10 256 170 290 (126208000)
I1121 02:05:43.620614  5092 layer_factory.hpp:74] Creating layer relu3_3
I1121 02:05:43.620628  5092 net.cpp:85] Creating Layer relu3_3
I1121 02:05:43.620636  5092 net.cpp:381] relu3_3 <- conv3_3
I1121 02:05:43.620643  5092 net.cpp:328] relu3_3 -> conv3_3 (in-place)
I1121 02:05:43.620651  5092 net.cpp:114] Setting up relu3_3
I1121 02:05:43.620658  5092 net.cpp:121] Top shape: 10 256 170 290 (126208000)
I1121 02:05:43.620664  5092 layer_factory.hpp:74] Creating layer pool3
I1121 02:05:43.620674  5092 net.cpp:85] Creating Layer pool3
I1121 02:05:43.620681  5092 net.cpp:381] pool3 <- conv3_3
I1121 02:05:43.620687  5092 net.cpp:339] pool3 -> pool3
I1121 02:05:43.620694  5092 net.cpp:114] Setting up pool3
I1121 02:05:43.620703  5092 net.cpp:121] Top shape: 10 256 85 145 (31552000)
I1121 02:05:43.620709  5092 layer_factory.hpp:74] Creating layer conv4_1
I1121 02:05:43.620718  5092 net.cpp:85] Creating Layer conv4_1
I1121 02:05:43.620721  5092 net.cpp:381] conv4_1 <- pool3
I1121 02:05:43.620730  5092 net.cpp:339] conv4_1 -> conv4_1
I1121 02:05:43.620738  5092 net.cpp:114] Setting up conv4_1
I1121 02:05:43.622778  5092 net.cpp:121] Top shape: 10 512 85 145 (63104000)
I1121 02:05:43.622792  5092 layer_factory.hpp:74] Creating layer relu4_1
I1121 02:05:43.622802  5092 net.cpp:85] Creating Layer relu4_1
I1121 02:05:43.622807  5092 net.cpp:381] relu4_1 <- conv4_1
I1121 02:05:43.622812  5092 net.cpp:328] relu4_1 -> conv4_1 (in-place)
I1121 02:05:43.622818  5092 net.cpp:114] Setting up relu4_1
I1121 02:05:43.622827  5092 net.cpp:121] Top shape: 10 512 85 145 (63104000)
I1121 02:05:43.622830  5092 layer_factory.hpp:74] Creating layer conv4_2
I1121 02:05:43.622839  5092 net.cpp:85] Creating Layer conv4_2
I1121 02:05:43.622845  5092 net.cpp:381] conv4_2 <- conv4_1
I1121 02:05:43.622851  5092 net.cpp:339] conv4_2 -> conv4_2
I1121 02:05:43.622861  5092 net.cpp:114] Setting up conv4_2
I1121 02:05:43.627312  5092 net.cpp:121] Top shape: 10 512 85 145 (63104000)
I1121 02:05:43.627331  5092 layer_factory.hpp:74] Creating layer relu4_2
I1121 02:05:43.627337  5092 net.cpp:85] Creating Layer relu4_2
I1121 02:05:43.627342  5092 net.cpp:381] relu4_2 <- conv4_2
I1121 02:05:43.627349  5092 net.cpp:328] relu4_2 -> conv4_2 (in-place)
I1121 02:05:43.627357  5092 net.cpp:114] Setting up relu4_2
I1121 02:05:43.627362  5092 net.cpp:121] Top shape: 10 512 85 145 (63104000)
I1121 02:05:43.627367  5092 layer_factory.hpp:74] Creating layer conv4_3
I1121 02:05:43.627374  5092 net.cpp:85] Creating Layer conv4_3
I1121 02:05:43.627378  5092 net.cpp:381] conv4_3 <- conv4_2
I1121 02:05:43.627387  5092 net.cpp:339] conv4_3 -> conv4_3
I1121 02:05:43.627398  5092 net.cpp:114] Setting up conv4_3
I1121 02:05:43.631966  5092 net.cpp:121] Top shape: 10 512 85 145 (63104000)
I1121 02:05:43.631983  5092 layer_factory.hpp:74] Creating layer relu4_3
I1121 02:05:43.631991  5092 net.cpp:85] Creating Layer relu4_3
I1121 02:05:43.631996  5092 net.cpp:381] relu4_3 <- conv4_3
I1121 02:05:43.632004  5092 net.cpp:328] relu4_3 -> conv4_3 (in-place)
I1121 02:05:43.632010  5092 net.cpp:114] Setting up relu4_3
I1121 02:05:43.632017  5092 net.cpp:121] Top shape: 10 512 85 145 (63104000)
I1121 02:05:43.632022  5092 layer_factory.hpp:74] Creating layer pool4
I1121 02:05:43.632030  5092 net.cpp:85] Creating Layer pool4
I1121 02:05:43.632033  5092 net.cpp:381] pool4 <- conv4_3
I1121 02:05:43.632040  5092 net.cpp:339] pool4 -> pool4
I1121 02:05:43.632047  5092 net.cpp:114] Setting up pool4
I1121 02:05:43.632055  5092 net.cpp:121] Top shape: 10 512 43 73 (16071680)
I1121 02:05:43.632061  5092 layer_factory.hpp:74] Creating layer conv5_1
I1121 02:05:43.632069  5092 net.cpp:85] Creating Layer conv5_1
I1121 02:05:43.632077  5092 net.cpp:381] conv5_1 <- pool4
I1121 02:05:43.632086  5092 net.cpp:339] conv5_1 -> conv5_1
I1121 02:05:43.632092  5092 net.cpp:114] Setting up conv5_1
I1121 02:05:43.636382  5092 net.cpp:121] Top shape: 10 512 43 73 (16071680)
I1121 02:05:43.636399  5092 layer_factory.hpp:74] Creating layer relu5_1
I1121 02:05:43.636405  5092 net.cpp:85] Creating Layer relu5_1
I1121 02:05:43.636411  5092 net.cpp:381] relu5_1 <- conv5_1
I1121 02:05:43.636417  5092 net.cpp:328] relu5_1 -> conv5_1 (in-place)
I1121 02:05:43.636423  5092 net.cpp:114] Setting up relu5_1
I1121 02:05:43.636430  5092 net.cpp:121] Top shape: 10 512 43 73 (16071680)
I1121 02:05:43.636433  5092 layer_factory.hpp:74] Creating layer conv5_2
I1121 02:05:43.636440  5092 net.cpp:85] Creating Layer conv5_2
I1121 02:05:43.636443  5092 net.cpp:381] conv5_2 <- conv5_1
I1121 02:05:43.636451  5092 net.cpp:339] conv5_2 -> conv5_2
I1121 02:05:43.636457  5092 net.cpp:114] Setting up conv5_2
I1121 02:05:43.640699  5092 net.cpp:121] Top shape: 10 512 43 73 (16071680)
I1121 02:05:43.640714  5092 layer_factory.hpp:74] Creating layer relu5_2
I1121 02:05:43.640720  5092 net.cpp:85] Creating Layer relu5_2
I1121 02:05:43.640724  5092 net.cpp:381] relu5_2 <- conv5_2
I1121 02:05:43.640732  5092 net.cpp:328] relu5_2 -> conv5_2 (in-place)
I1121 02:05:43.640738  5092 net.cpp:114] Setting up relu5_2
I1121 02:05:43.640744  5092 net.cpp:121] Top shape: 10 512 43 73 (16071680)
I1121 02:05:43.640748  5092 layer_factory.hpp:74] Creating layer conv5_3
I1121 02:05:43.640754  5092 net.cpp:85] Creating Layer conv5_3
I1121 02:05:43.640758  5092 net.cpp:381] conv5_3 <- conv5_2
I1121 02:05:43.640765  5092 net.cpp:339] conv5_3 -> conv5_3
I1121 02:05:43.640772  5092 net.cpp:114] Setting up conv5_3
I1121 02:05:43.644590  5092 net.cpp:121] Top shape: 10 512 43 73 (16071680)
I1121 02:05:43.644604  5092 layer_factory.hpp:74] Creating layer relu5_3
I1121 02:05:43.644616  5092 net.cpp:85] Creating Layer relu5_3
I1121 02:05:43.644620  5092 net.cpp:381] relu5_3 <- conv5_3
I1121 02:05:43.644628  5092 net.cpp:328] relu5_3 -> conv5_3 (in-place)
I1121 02:05:43.644634  5092 net.cpp:114] Setting up relu5_3
I1121 02:05:43.644639  5092 net.cpp:121] Top shape: 10 512 43 73 (16071680)
I1121 02:05:43.644641  5092 layer_factory.hpp:74] Creating layer pool5
I1121 02:05:43.644650  5092 net.cpp:85] Creating Layer pool5
I1121 02:05:43.644654  5092 net.cpp:381] pool5 <- conv5_3
I1121 02:05:43.644659  5092 net.cpp:339] pool5 -> pool5
I1121 02:05:43.644665  5092 net.cpp:114] Setting up pool5
I1121 02:05:43.644673  5092 net.cpp:121] Top shape: 10 512 22 37 (4167680)
I1121 02:05:43.644677  5092 layer_factory.hpp:74] Creating layer fc6
I1121 02:05:43.644686  5092 net.cpp:85] Creating Layer fc6
I1121 02:05:43.644690  5092 net.cpp:381] fc6 <- pool5
I1121 02:05:43.644695  5092 net.cpp:339] fc6 -> fc6
I1121 02:05:43.644701  5092 net.cpp:114] Setting up fc6
I1121 02:05:43.776700  5092 net.cpp:121] Top shape: 10 4096 16 31 (20316160)
I1121 02:05:43.776727  5092 layer_factory.hpp:74] Creating layer relu6
I1121 02:05:43.776737  5092 net.cpp:85] Creating Layer relu6
I1121 02:05:43.776741  5092 net.cpp:381] relu6 <- fc6
I1121 02:05:43.776747  5092 net.cpp:328] relu6 -> fc6 (in-place)
I1121 02:05:43.776757  5092 net.cpp:114] Setting up relu6
I1121 02:05:43.776762  5092 net.cpp:121] Top shape: 10 4096 16 31 (20316160)
I1121 02:05:43.776764  5092 layer_factory.hpp:74] Creating layer drop6
I1121 02:05:43.776772  5092 net.cpp:85] Creating Layer drop6
I1121 02:05:43.776774  5092 net.cpp:381] drop6 <- fc6
I1121 02:05:43.776778  5092 net.cpp:328] drop6 -> fc6 (in-place)
I1121 02:05:43.776782  5092 net.cpp:114] Setting up drop6
I1121 02:05:43.776787  5092 net.cpp:121] Top shape: 10 4096 16 31 (20316160)
I1121 02:05:43.776790  5092 layer_factory.hpp:74] Creating layer fc7
I1121 02:05:43.776796  5092 net.cpp:85] Creating Layer fc7
I1121 02:05:43.776798  5092 net.cpp:381] fc7 <- fc6
I1121 02:05:43.776803  5092 net.cpp:339] fc7 -> fc7
I1121 02:05:43.776808  5092 net.cpp:114] Setting up fc7
I1121 02:05:43.805162  5092 net.cpp:121] Top shape: 10 4096 16 31 (20316160)
I1121 02:05:43.805198  5092 layer_factory.hpp:74] Creating layer relu7
I1121 02:05:43.805213  5092 net.cpp:85] Creating Layer relu7
I1121 02:05:43.805220  5092 net.cpp:381] relu7 <- fc7
I1121 02:05:43.805229  5092 net.cpp:328] relu7 -> fc7 (in-place)
I1121 02:05:43.805239  5092 net.cpp:114] Setting up relu7
I1121 02:05:43.805248  5092 net.cpp:121] Top shape: 10 4096 16 31 (20316160)
I1121 02:05:43.805253  5092 layer_factory.hpp:74] Creating layer drop7
I1121 02:05:43.805260  5092 net.cpp:85] Creating Layer drop7
I1121 02:05:43.805265  5092 net.cpp:381] drop7 <- fc7
I1121 02:05:43.805271  5092 net.cpp:328] drop7 -> fc7 (in-place)
I1121 02:05:43.805279  5092 net.cpp:114] Setting up drop7
I1121 02:05:43.805287  5092 net.cpp:121] Top shape: 10 4096 16 31 (20316160)
I1121 02:05:43.805291  5092 layer_factory.hpp:74] Creating layer score1
I1121 02:05:43.805304  5092 net.cpp:85] Creating Layer score1
I1121 02:05:43.805307  5092 net.cpp:381] score1 <- fc7
I1121 02:05:43.805315  5092 net.cpp:339] score1 -> score1
I1121 02:05:43.805322  5092 net.cpp:114] Setting up score1
I1121 02:05:43.805357  5092 net.cpp:121] Top shape: 10 2 16 31 (9920)
I1121 02:05:43.805366  5092 layer_factory.hpp:74] Creating layer upscore-hand
I1121 02:05:43.805376  5092 net.cpp:85] Creating Layer upscore-hand
I1121 02:05:43.805380  5092 net.cpp:381] upscore-hand <- score1
I1121 02:05:43.805387  5092 net.cpp:339] upscore-hand -> upscore-hand
I1121 02:05:43.805393  5092 net.cpp:114] Setting up upscore-hand
I1121 02:05:43.805455  5092 net.cpp:121] Top shape: 10 2 544 1024 (11141120)
I1121 02:05:43.805480  5092 layer_factory.hpp:74] Creating layer score
I1121 02:05:43.805495  5092 net.cpp:85] Creating Layer score
I1121 02:05:43.805500  5092 net.cpp:381] score <- upscore-hand
I1121 02:05:43.805506  5092 net.cpp:381] score <- data_slice_data_0_split_1
I1121 02:05:43.805515  5092 net.cpp:339] score -> score
I1121 02:05:43.805526  5092 net.cpp:114] Setting up score
I1121 02:05:43.805595  5092 net.cpp:121] Top shape: 10 2 480 960 (9216000)
I1121 02:05:43.805603  5092 layer_factory.hpp:74] Creating layer loss
I1121 02:05:43.805611  5092 net.cpp:85] Creating Layer loss
I1121 02:05:43.805616  5092 net.cpp:381] loss <- score
I1121 02:05:43.805624  5092 net.cpp:381] loss <- label
I1121 02:05:43.805630  5092 net.cpp:339] loss -> loss
I1121 02:05:43.805639  5092 net.cpp:114] Setting up loss
I1121 02:05:43.805645  5092 layer_factory.hpp:74] Creating layer loss
…
