…
net: ".fcn32_obj_train.prototxt"
iter_size: 1
I1122 05:17:13.929450  9840 solver.cpp:70] Creating training net from net file: .fcn32_obj_train.prototxt
I1122 05:17:13.930450  9840 net.cpp:42] Initializing net from parameters: 
name: "FCN"
state {
  phase: TRAIN
}
layer {
  name: "raw_data"
  type: "ObjectData"
  top: "raw_data"
  include {
    phase: TRAIN
  }
  transform_param {
  }
  object_data_param {
    source: "data.txt"
    shuffle: true
    mean_value: 104.00699
    mean_value: 116.66877
    mean_value: 122.67892
    batch_size: 16
    show_level: 0
    mirror: true
  }
}
layer {
  name: "slice_data"
  type: "Slice"
  bottom: "raw_data"
  top: "image_data"
  top: "object_heatmap"
  slice_param {
    slice_point: 3
    axis: 1
  }
}
layer {
  name: "conv1_1"
  type: "Convolution"
  bottom: "image_data"
  top: "conv1_1"
  param {
    lr_mult: 1
    decay_mult: 1
  }
  param {
    lr_mult: 2
    decay_mult: 0
  }
  convolution_param {
    num_output: 64
    pad: 100
    kernel_size: 3
    engine: CAFFE
  }
}
layer {
  name: "relu1_1"
  type: "ReLU"
  bottom: "conv1_1"
  top: "conv1_1"
}
layer {
  name: "conv1_2"
  type: "Convolution"
  bottom: "conv1_1"
  top: "conv1_2"
  param {
    lr_mult: 1
    decay_mult: 1
  }
  param {
    lr_mult: 2
    decay_mult: 0
  }
  convolution_param {
    num_output: 64
    pad: 1
    kernel_size: 3
    engine: CAFFE
  }
}
layer {
  name: "relu1_2"
  type: "ReLU"
  bottom: "conv1_2"
  top: "conv1_2"
}
layer {
  name: "pool1"
  type: "Pooling"
  bottom: "conv1_2"
  top: "pool1"
  pooling_param {
    pool: MAX
    kernel_size: 2
    stride: 2
  }
}
layer {
  name: "conv2_1"
  type: "Convolution"
  bottom: "pool1"
  top: "conv2_1"
  param {
    lr_mult: 1
    decay_mult: 1
  }
  param {
    lr_mult: 2
    decay_mult: 0
  }
  convolution_param {
    num_output: 128
    pad: 1
    kernel_size: 3
    engine: CAFFE
  }
}
layer {
  name: "relu2_1"
  type: "ReLU"
  bottom: "conv2_1"
  top: "conv2_1"
}
layer {
  name: "conv2_2"
  type: "Convolution"
  bottom: "conv2_1"
  top: "conv2_2"
  param {
    lr_mult: 1
    decay_mult: 1
  }
  param {
    lr_mult: 2
    decay_mult: 0
  }
  convolution_param {
    num_output: 128
    pad: 1
    kernel_size: 3
    engine: CAFFE
  }
}
layer {
  name: "relu2_2"
  type: "ReLU"
  bottom: "conv2_2"
  top: "conv2_2"
}
layer {
  name: "pool2"
  type: "Pooling"
  bottom: "conv2_2"
  top: "pool2"
  pooling_param {
    pool: MAX
    kernel_size: 2
    stride: 2
  }
}
layer {
  name: "conv3_1"
  type: "Convolution"
  bottom: "pool2"
  top: "conv3_1"
  param {
    lr_mult: 1
    decay_mult: 1
  }
  param {
    lr_mult: 2
    decay_mult: 0
  }
  convolution_param {
    num_output: 256
    pad: 1
    kernel_size: 3
    engine: CAFFE
  }
}
layer {
  name: "relu3_1"
  type: "ReLU"
  bottom: "conv3_1"
  top: "conv3_1"
}
layer {
  name: "conv3_2"
  type: "Convolution"
  bottom: "conv3_1"
  top: "conv3_2"
  param {
    lr_mult: 1
    decay_mult: 1
  }
  param {
    lr_mult: 2
    decay_mult: 0
  }
  convolution_param {
    num_output: 256
    pad: 1
    kernel_size: 3
    engine: CAFFE
  }
}
layer {
  name: "relu3_2"
  type: "ReLU"
  bottom: "conv3_2"
  top: "conv3_2"
}
layer {
  name: "conv3_3"
  type: "Convolution"
  bottom: "conv3_2"
  top: "conv3_3"
  param {
    lr_mult: 1
    decay_mult: 1
  }
  param {
    lr_mult: 2
    decay_mult: 0
  }
  convolution_param {
    num_output: 256
    pad: 1
    kernel_size: 3
    engine: CAFFE
  }
}
layer {
  name: "relu3_3"
  type: "ReLU"
  bottom: "conv3_3"
  top: "conv3_3"
}
layer {
  name: "pool3"
  type: "Pooling"
  bottom: "conv3_3"
  top: "pool3"
  pooling_param {
    pool: MAX
    kernel_size: 2
    stride: 2
  }
}
layer {
  name: "conv4_1"
  type: "Convolution"
  bottom: "pool3"
  top: "conv4_1"
  param {
    lr_mult: 1
    decay_mult: 1
  }
  param {
    lr_mult: 2
    decay_mult: 0
  }
  convolution_param {
    num_output: 512
    pad: 1
    kernel_size: 3
    engine: CAFFE
  }
}
layer {
  name: "relu4_1"
  type: "ReLU"
  bottom: "conv4_1"
  top: "conv4_1"
}
layer {
  name: "conv4_2"
  type: "Convolution"
  bottom: "conv4_1"
  top: "conv4_2"
  param {
    lr_mult: 1
    decay_mult: 1
  }
  param {
    lr_mult: 2
    decay_mult: 0
  }
  convolution_param {
    num_output: 512
    pad: 1
    kernel_size: 3
    engine: CAFFE
  }
}
layer {
  name: "relu4_2"
  type: "ReLU"
  bottom: "conv4_2"
  top: "conv4_2"
}
layer {
  name: "conv4_3"
  type: "Convolution"
  bottom: "conv4_2"
  top: "conv4_3"
  param {
    lr_mult: 1
    decay_mult: 1
  }
  param {
    lr_mult: 2
    decay_mult: 0
  }
  convolution_param {
    num_output: 512
    pad: 1
    kernel_size: 3
    engine: CAFFE
  }
}
layer {
  name: "relu4_3"
  type: "ReLU"
  bottom: "conv4_3"
  top: "conv4_3"
}
layer {
  name: "pool4"
  type: "Pooling"
  bottom: "conv4_3"
  top: "pool4"
  pooling_param {
    pool: MAX
    kernel_size: 2
    stride: 2
  }
}
layer {
  name: "conv5_1"
  type: "Convolution"
  bottom: "pool4"
  top: "conv5_1"
  param {
    lr_mult: 1
    decay_mult: 1
  }
  param {
    lr_mult: 2
    decay_mult: 0
  }
  convolution_param {
    num_output: 512
    pad: 1
    kernel_size: 3
    engine: CAFFE
  }
}
layer {
  name: "relu5_1"
  type: "ReLU"
  bottom: "conv5_1"
  top: "conv5_1"
}
layer {
  name: "conv5_2"
  type: "Convolution"
  bottom: "conv5_1"
  top: "conv5_2"
  param {
    lr_mult: 1
    decay_mult: 1
  }
  param {
    lr_mult: 2
    decay_mult: 0
  }
  convolution_param {
    num_output: 512
    pad: 1
    kernel_size: 3
    engine: CAFFE
  }
}
layer {
  name: "relu5_2"
  type: "ReLU"
  bottom: "conv5_2"
  top: "conv5_2"
}
layer {
  name: "conv5_3"
  type: "Convolution"
  bottom: "conv5_2"
  top: "conv5_3"
  param {
    lr_mult: 1
    decay_mult: 1
  }
  param {
    lr_mult: 2
    decay_mult: 0
  }
  convolution_param {
    num_output: 512
    pad: 1
    kernel_size: 3
    engine: CAFFE
  }
}
layer {
  name: "relu5_3"
  type: "ReLU"
  bottom: "conv5_3"
  top: "conv5_3"
}
layer {
  name: "pool5"
  type: "Pooling"
  bottom: "conv5_3"
  top: "pool5"
  pooling_param {
    pool: MAX
    kernel_size: 2
    stride: 2
  }
}
layer {
  name: "fc6"
  type: "Convolution"
  bottom: "pool5"
  top: "fc6"
  param {
    lr_mult: 1
    decay_mult: 1
  }
  param {
    lr_mult: 2
    decay_mult: 0
  }
  convolution_param {
    num_output: 4096
    kernel_size: 7
    engine: CAFFE
  }
}
layer {
  name: "relu6"
  type: "ReLU"
  bottom: "fc6"
  top: "fc6"
}
layer {
  name: "drop6"
  type: "Dropout"
  bottom: "fc6"
  top: "fc6"
  dropout_param {
    dropout_ratio: 0.5
  }
}
layer {
  name: "fc7"
  type: "Convolution"
  bottom: "fc6"
  top: "fc7"
  param {
    lr_mult: 1
    decay_mult: 1
  }
  param {
    lr_mult: 2
    decay_mult: 0
  }
  convolution_param {
    num_output: 4096
    kernel_size: 1
    engine: CAFFE
  }
}
layer {
  name: "relu7"
  type: "ReLU"
  bottom: "fc7"
  top: "fc7"
}
layer {
  name: "drop7"
  type: "Dropout"
  bottom: "fc7"
  top: "fc7"
  dropout_param {
    dropout_ratio: 0.5
  }
}
layer {
  name: "score2"
  type: "Convolution"
  bottom: "fc7"
  top: "score2"
  param {
    lr_mult: 1
    decay_mult: 1
  }
  param {
    lr_mult: 2
    decay_mult: 0
  }
  convolution_param {
    num_output: 2
    kernel_size: 1
    engine: CAFFE
  }
}
layer {
  name: "upscore-hand2"
  type: "Deconvolution"
  bottom: "score2"
  top: "upscore-hand2"
  param {
    lr_mult: 0
  }
  convolution_param {
    num_output: 2
    bias_term: false
    kernel_size: 64
    stride: 32
  }
}
layer {
  name: "score"
  type: "Crop"
  bottom: "upscore-hand2"
  bottom: "image_data"
  top: "score"
}
layer {
  name: "loss"
  type: "SoftmaxWithLoss"
  bottom: "score"
  bottom: "object_heatmap"
  top: "loss"
  loss_weight: 1
  loss_param {
    normalize: false
  }
}
I1122 05:17:13.930626  9840 layer_factory.hpp:74] Creating layer raw_data
I1122 05:17:13.930649  9840 net.cpp:85] Creating Layer raw_data
I1122 05:17:13.930655  9840 net.cpp:339] raw_data -> raw_data
I1122 05:17:13.930665  9840 net.cpp:114] Setting up raw_data
I1122 05:17:13.930670  9840 object_data_layer.cpp:42] Opening file data.txt
I1122 05:17:13.932153  9840 object_data_layer.cpp:52] Total number of image pairs: 1255
I1122 05:17:13.932570  9840 object_data_layer.cpp:87] Shuffle images
I1122 05:17:13.934564  9840 object_data_layer.cpp:72] 256,256
I1122 05:17:13.934582  9840 object_data_layer.cpp:80] output data size: 16,4,256,256
I1122 05:17:13.938248  9840 net.cpp:121] Top shape: 16 4 256 256 (4194304)
I1122 05:17:13.938259  9840 layer_factory.hpp:74] Creating layer slice_data
I1122 05:17:13.938276  9840 net.cpp:85] Creating Layer slice_data
I1122 05:17:13.938279  9840 net.cpp:381] slice_data <- raw_data
I1122 05:17:13.938287  9840 net.cpp:339] slice_data -> image_data
I1122 05:17:13.938295  9840 net.cpp:339] slice_data -> object_heatmap
I1122 05:17:13.938302  9840 net.cpp:114] Setting up slice_data
I1122 05:17:13.938310  9840 net.cpp:121] Top shape: 16 3 256 256 (3145728)
I1122 05:17:13.938314  9840 net.cpp:121] Top shape: 16 1 256 256 (1048576)
I1122 05:17:13.938318  9840 layer_factory.hpp:74] Creating layer image_data_slice_data_0_split
I1122 05:17:13.938328  9840 net.cpp:85] Creating Layer image_data_slice_data_0_split
I1122 05:17:13.938331  9840 net.cpp:381] image_data_slice_data_0_split <- image_data
I1122 05:17:13.938336  9840 net.cpp:339] image_data_slice_data_0_split -> image_data_slice_data_0_split_0
I1122 05:17:13.938343  9840 net.cpp:339] image_data_slice_data_0_split -> image_data_slice_data_0_split_1
I1122 05:17:13.938349  9840 net.cpp:114] Setting up image_data_slice_data_0_split
I1122 05:17:13.938355  9840 net.cpp:121] Top shape: 16 3 256 256 (3145728)
I1122 05:17:13.938360  9840 net.cpp:121] Top shape: 16 3 256 256 (3145728)
I1122 05:17:13.938364  9840 layer_factory.hpp:74] Creating layer conv1_1
I1122 05:17:13.938370  9840 net.cpp:85] Creating Layer conv1_1
I1122 05:17:13.938374  9840 net.cpp:381] conv1_1 <- image_data_slice_data_0_split_0
I1122 05:17:13.938380  9840 net.cpp:339] conv1_1 -> conv1_1
I1122 05:17:13.938385  9840 net.cpp:114] Setting up conv1_1
I1122 05:17:13.938767  9840 net.cpp:121] Top shape: 16 64 454 454 (211062784)
I1122 05:17:13.938784  9840 layer_factory.hpp:74] Creating layer relu1_1
I1122 05:17:13.938793  9840 net.cpp:85] Creating Layer relu1_1
I1122 05:17:13.938797  9840 net.cpp:381] relu1_1 <- conv1_1
I1122 05:17:13.938802  9840 net.cpp:328] relu1_1 -> conv1_1 (in-place)
I1122 05:17:13.938807  9840 net.cpp:114] Setting up relu1_1
I1122 05:17:13.938817  9840 net.cpp:121] Top shape: 16 64 454 454 (211062784)
I1122 05:17:13.938822  9840 layer_factory.hpp:74] Creating layer conv1_2
I1122 05:17:13.938828  9840 net.cpp:85] Creating Layer conv1_2
I1122 05:17:13.938832  9840 net.cpp:381] conv1_2 <- conv1_1
I1122 05:17:13.938837  9840 net.cpp:339] conv1_2 -> conv1_2
I1122 05:17:13.938843  9840 net.cpp:114] Setting up conv1_2
I1122 05:17:13.939288  9840 net.cpp:121] Top shape: 16 64 454 454 (211062784)
I1122 05:17:13.939299  9840 layer_factory.hpp:74] Creating layer relu1_2
I1122 05:17:13.939306  9840 net.cpp:85] Creating Layer relu1_2
I1122 05:17:13.939311  9840 net.cpp:381] relu1_2 <- conv1_2
I1122 05:17:13.939316  9840 net.cpp:328] relu1_2 -> conv1_2 (in-place)
I1122 05:17:13.939321  9840 net.cpp:114] Setting up relu1_2
I1122 05:17:13.939326  9840 net.cpp:121] Top shape: 16 64 454 454 (211062784)
I1122 05:17:13.939328  9840 layer_factory.hpp:74] Creating layer pool1
I1122 05:17:13.939334  9840 net.cpp:85] Creating Layer pool1
I1122 05:17:13.939338  9840 net.cpp:381] pool1 <- conv1_2
I1122 05:17:13.939344  9840 net.cpp:339] pool1 -> pool1
I1122 05:17:13.939349  9840 net.cpp:114] Setting up pool1
I1122 05:17:13.939357  9840 net.cpp:121] Top shape: 16 64 227 227 (52765696)
I1122 05:17:13.939360  9840 layer_factory.hpp:74] Creating layer conv2_1
I1122 05:17:13.939366  9840 net.cpp:85] Creating Layer conv2_1
I1122 05:17:13.939370  9840 net.cpp:381] conv2_1 <- pool1
I1122 05:17:13.939376  9840 net.cpp:339] conv2_1 -> conv2_1
I1122 05:17:13.939383  9840 net.cpp:114] Setting up conv2_1
I1122 05:17:13.939620  9840 net.cpp:121] Top shape: 16 128 227 227 (105531392)
I1122 05:17:13.939631  9840 layer_factory.hpp:74] Creating layer relu2_1
I1122 05:17:13.939640  9840 net.cpp:85] Creating Layer relu2_1
I1122 05:17:13.939642  9840 net.cpp:381] relu2_1 <- conv2_1
I1122 05:17:13.939647  9840 net.cpp:328] relu2_1 -> conv2_1 (in-place)
I1122 05:17:13.939652  9840 net.cpp:114] Setting up relu2_1
I1122 05:17:13.939657  9840 net.cpp:121] Top shape: 16 128 227 227 (105531392)
I1122 05:17:13.939661  9840 layer_factory.hpp:74] Creating layer conv2_2
I1122 05:17:13.939666  9840 net.cpp:85] Creating Layer conv2_2
I1122 05:17:13.939669  9840 net.cpp:381] conv2_2 <- conv2_1
I1122 05:17:13.939676  9840 net.cpp:339] conv2_2 -> conv2_2
I1122 05:17:13.939682  9840 net.cpp:114] Setting up conv2_2
I1122 05:17:13.940052  9840 net.cpp:121] Top shape: 16 128 227 227 (105531392)
I1122 05:17:13.940062  9840 layer_factory.hpp:74] Creating layer relu2_2
I1122 05:17:13.940067  9840 net.cpp:85] Creating Layer relu2_2
I1122 05:17:13.940070  9840 net.cpp:381] relu2_2 <- conv2_2
I1122 05:17:13.940076  9840 net.cpp:328] relu2_2 -> conv2_2 (in-place)
I1122 05:17:13.940081  9840 net.cpp:114] Setting up relu2_2
I1122 05:17:13.940086  9840 net.cpp:121] Top shape: 16 128 227 227 (105531392)
I1122 05:17:13.940090  9840 layer_factory.hpp:74] Creating layer pool2
I1122 05:17:13.940096  9840 net.cpp:85] Creating Layer pool2
I1122 05:17:13.940099  9840 net.cpp:381] pool2 <- conv2_2
I1122 05:17:13.940106  9840 net.cpp:339] pool2 -> pool2
I1122 05:17:13.940111  9840 net.cpp:114] Setting up pool2
I1122 05:17:13.940117  9840 net.cpp:121] Top shape: 16 128 114 114 (26615808)
I1122 05:17:13.940120  9840 layer_factory.hpp:74] Creating layer conv3_1
I1122 05:17:13.940126  9840 net.cpp:85] Creating Layer conv3_1
I1122 05:17:13.940129  9840 net.cpp:381] conv3_1 <- pool2
I1122 05:17:13.940135  9840 net.cpp:339] conv3_1 -> conv3_1
I1122 05:17:13.940141  9840 net.cpp:114] Setting up conv3_1
I1122 05:17:13.940731  9840 net.cpp:121] Top shape: 16 256 114 114 (53231616)
I1122 05:17:13.940745  9840 layer_factory.hpp:74] Creating layer relu3_1
I1122 05:17:13.940752  9840 net.cpp:85] Creating Layer relu3_1
I1122 05:17:13.940755  9840 net.cpp:381] relu3_1 <- conv3_1
I1122 05:17:13.940760  9840 net.cpp:328] relu3_1 -> conv3_1 (in-place)
I1122 05:17:13.940764  9840 net.cpp:114] Setting up relu3_1
I1122 05:17:13.940769  9840 net.cpp:121] Top shape: 16 256 114 114 (53231616)
I1122 05:17:13.940773  9840 layer_factory.hpp:74] Creating layer conv3_2
I1122 05:17:13.940778  9840 net.cpp:85] Creating Layer conv3_2
I1122 05:17:13.940781  9840 net.cpp:381] conv3_2 <- conv3_1
I1122 05:17:13.940788  9840 net.cpp:339] conv3_2 -> conv3_2
I1122 05:17:13.940793  9840 net.cpp:114] Setting up conv3_2
I1122 05:17:13.941884  9840 net.cpp:121] Top shape: 16 256 114 114 (53231616)
I1122 05:17:13.941893  9840 layer_factory.hpp:74] Creating layer relu3_2
I1122 05:17:13.941902  9840 net.cpp:85] Creating Layer relu3_2
I1122 05:17:13.941905  9840 net.cpp:381] relu3_2 <- conv3_2
I1122 05:17:13.941910  9840 net.cpp:328] relu3_2 -> conv3_2 (in-place)
I1122 05:17:13.941915  9840 net.cpp:114] Setting up relu3_2
I1122 05:17:13.941920  9840 net.cpp:121] Top shape: 16 256 114 114 (53231616)
I1122 05:17:13.941925  9840 layer_factory.hpp:74] Creating layer conv3_3
I1122 05:17:13.941929  9840 net.cpp:85] Creating Layer conv3_3
I1122 05:17:13.941932  9840 net.cpp:381] conv3_3 <- conv3_2
I1122 05:17:13.941938  9840 net.cpp:339] conv3_3 -> conv3_3
I1122 05:17:13.941944  9840 net.cpp:114] Setting up conv3_3
I1122 05:17:13.943017  9840 net.cpp:121] Top shape: 16 256 114 114 (53231616)
I1122 05:17:13.943028  9840 layer_factory.hpp:74] Creating layer relu3_3
I1122 05:17:13.943035  9840 net.cpp:85] Creating Layer relu3_3
I1122 05:17:13.943038  9840 net.cpp:381] relu3_3 <- conv3_3
I1122 05:17:13.943043  9840 net.cpp:328] relu3_3 -> conv3_3 (in-place)
I1122 05:17:13.943048  9840 net.cpp:114] Setting up relu3_3
I1122 05:17:13.943053  9840 net.cpp:121] Top shape: 16 256 114 114 (53231616)
I1122 05:17:13.943056  9840 layer_factory.hpp:74] Creating layer pool3
I1122 05:17:13.943061  9840 net.cpp:85] Creating Layer pool3
I1122 05:17:13.943064  9840 net.cpp:381] pool3 <- conv3_3
I1122 05:17:13.943069  9840 net.cpp:339] pool3 -> pool3
I1122 05:17:13.943074  9840 net.cpp:114] Setting up pool3
I1122 05:17:13.943081  9840 net.cpp:121] Top shape: 16 256 57 57 (13307904)
I1122 05:17:13.943084  9840 layer_factory.hpp:74] Creating layer conv4_1
I1122 05:17:13.943091  9840 net.cpp:85] Creating Layer conv4_1
I1122 05:17:13.943094  9840 net.cpp:381] conv4_1 <- pool3
I1122 05:17:13.943100  9840 net.cpp:339] conv4_1 -> conv4_1
I1122 05:17:13.943105  9840 net.cpp:114] Setting up conv4_1
I1122 05:17:13.944906  9840 net.cpp:121] Top shape: 16 512 57 57 (26615808)
I1122 05:17:13.944918  9840 layer_factory.hpp:74] Creating layer relu4_1
I1122 05:17:13.944923  9840 net.cpp:85] Creating Layer relu4_1
I1122 05:17:13.944926  9840 net.cpp:381] relu4_1 <- conv4_1
I1122 05:17:13.944931  9840 net.cpp:328] relu4_1 -> conv4_1 (in-place)
I1122 05:17:13.944936  9840 net.cpp:114] Setting up relu4_1
I1122 05:17:13.944941  9840 net.cpp:121] Top shape: 16 512 57 57 (26615808)
I1122 05:17:13.944944  9840 layer_factory.hpp:74] Creating layer conv4_2
I1122 05:17:13.944949  9840 net.cpp:85] Creating Layer conv4_2
I1122 05:17:13.944953  9840 net.cpp:381] conv4_2 <- conv4_1
I1122 05:17:13.944962  9840 net.cpp:339] conv4_2 -> conv4_2
I1122 05:17:13.944967  9840 net.cpp:114] Setting up conv4_2
I1122 05:17:13.948216  9840 net.cpp:121] Top shape: 16 512 57 57 (26615808)
I1122 05:17:13.948231  9840 layer_factory.hpp:74] Creating layer relu4_2
I1122 05:17:13.948237  9840 net.cpp:85] Creating Layer relu4_2
I1122 05:17:13.948240  9840 net.cpp:381] relu4_2 <- conv4_2
I1122 05:17:13.948246  9840 net.cpp:328] relu4_2 -> conv4_2 (in-place)
I1122 05:17:13.948251  9840 net.cpp:114] Setting up relu4_2
I1122 05:17:13.948256  9840 net.cpp:121] Top shape: 16 512 57 57 (26615808)
I1122 05:17:13.948259  9840 layer_factory.hpp:74] Creating layer conv4_3
I1122 05:17:13.948266  9840 net.cpp:85] Creating Layer conv4_3
I1122 05:17:13.948268  9840 net.cpp:381] conv4_3 <- conv4_2
I1122 05:17:13.948274  9840 net.cpp:339] conv4_3 -> conv4_3
I1122 05:17:13.948281  9840 net.cpp:114] Setting up conv4_3
I1122 05:17:13.951164  9840 net.cpp:121] Top shape: 16 512 57 57 (26615808)
I1122 05:17:13.951176  9840 layer_factory.hpp:74] Creating layer relu4_3
I1122 05:17:13.951184  9840 net.cpp:85] Creating Layer relu4_3
I1122 05:17:13.951187  9840 net.cpp:381] relu4_3 <- conv4_3
I1122 05:17:13.951192  9840 net.cpp:328] relu4_3 -> conv4_3 (in-place)
I1122 05:17:13.951197  9840 net.cpp:114] Setting up relu4_3
I1122 05:17:13.951202  9840 net.cpp:121] Top shape: 16 512 57 57 (26615808)
I1122 05:17:13.951205  9840 layer_factory.hpp:74] Creating layer pool4
I1122 05:17:13.951212  9840 net.cpp:85] Creating Layer pool4
I1122 05:17:13.951215  9840 net.cpp:381] pool4 <- conv4_3
I1122 05:17:13.951220  9840 net.cpp:339] pool4 -> pool4
I1122 05:17:13.951226  9840 net.cpp:114] Setting up pool4
I1122 05:17:13.951232  9840 net.cpp:121] Top shape: 16 512 29 29 (6889472)
I1122 05:17:13.951236  9840 layer_factory.hpp:74] Creating layer conv5_1
I1122 05:17:13.951241  9840 net.cpp:85] Creating Layer conv5_1
I1122 05:17:13.951244  9840 net.cpp:381] conv5_1 <- pool4
I1122 05:17:13.951251  9840 net.cpp:339] conv5_1 -> conv5_1
I1122 05:17:13.951256  9840 net.cpp:114] Setting up conv5_1
I1122 05:17:13.954116  9840 net.cpp:121] Top shape: 16 512 29 29 (6889472)
I1122 05:17:13.954128  9840 layer_factory.hpp:74] Creating layer relu5_1
I1122 05:17:13.954133  9840 net.cpp:85] Creating Layer relu5_1
I1122 05:17:13.954138  9840 net.cpp:381] relu5_1 <- conv5_1
I1122 05:17:13.954144  9840 net.cpp:328] relu5_1 -> conv5_1 (in-place)
I1122 05:17:13.954149  9840 net.cpp:114] Setting up relu5_1
I1122 05:17:13.954154  9840 net.cpp:121] Top shape: 16 512 29 29 (6889472)
I1122 05:17:13.954156  9840 layer_factory.hpp:74] Creating layer conv5_2
I1122 05:17:13.954162  9840 net.cpp:85] Creating Layer conv5_2
I1122 05:17:13.954165  9840 net.cpp:381] conv5_2 <- conv5_1
I1122 05:17:13.954170  9840 net.cpp:339] conv5_2 -> conv5_2
I1122 05:17:13.954175  9840 net.cpp:114] Setting up conv5_2
I1122 05:17:13.957407  9840 net.cpp:121] Top shape: 16 512 29 29 (6889472)
I1122 05:17:13.957419  9840 layer_factory.hpp:74] Creating layer relu5_2
I1122 05:17:13.957425  9840 net.cpp:85] Creating Layer relu5_2
I1122 05:17:13.957428  9840 net.cpp:381] relu5_2 <- conv5_2
I1122 05:17:13.957434  9840 net.cpp:328] relu5_2 -> conv5_2 (in-place)
I1122 05:17:13.957440  9840 net.cpp:114] Setting up relu5_2
I1122 05:17:13.957444  9840 net.cpp:121] Top shape: 16 512 29 29 (6889472)
I1122 05:17:13.957448  9840 layer_factory.hpp:74] Creating layer conv5_3
I1122 05:17:13.957453  9840 net.cpp:85] Creating Layer conv5_3
I1122 05:17:13.957458  9840 net.cpp:381] conv5_3 <- conv5_2
I1122 05:17:13.957461  9840 net.cpp:339] conv5_3 -> conv5_3
I1122 05:17:13.957468  9840 net.cpp:114] Setting up conv5_3
I1122 05:17:13.960278  9840 net.cpp:121] Top shape: 16 512 29 29 (6889472)
I1122 05:17:13.960289  9840 layer_factory.hpp:74] Creating layer relu5_3
I1122 05:17:13.960300  9840 net.cpp:85] Creating Layer relu5_3
I1122 05:17:13.960304  9840 net.cpp:381] relu5_3 <- conv5_3
I1122 05:17:13.960310  9840 net.cpp:328] relu5_3 -> conv5_3 (in-place)
I1122 05:17:13.960315  9840 net.cpp:114] Setting up relu5_3
I1122 05:17:13.960319  9840 net.cpp:121] Top shape: 16 512 29 29 (6889472)
I1122 05:17:13.960324  9840 layer_factory.hpp:74] Creating layer pool5
I1122 05:17:13.960340  9840 net.cpp:85] Creating Layer pool5
I1122 05:17:13.960345  9840 net.cpp:381] pool5 <- conv5_3
I1122 05:17:13.960350  9840 net.cpp:339] pool5 -> pool5
I1122 05:17:13.960355  9840 net.cpp:114] Setting up pool5
I1122 05:17:13.960363  9840 net.cpp:121] Top shape: 16 512 15 15 (1843200)
I1122 05:17:13.960367  9840 layer_factory.hpp:74] Creating layer fc6
I1122 05:17:13.960373  9840 net.cpp:85] Creating Layer fc6
I1122 05:17:13.960377  9840 net.cpp:381] fc6 <- pool5
I1122 05:17:13.960383  9840 net.cpp:339] fc6 -> fc6
I1122 05:17:13.960388  9840 net.cpp:114] Setting up fc6
I1122 05:17:14.079140  9840 net.cpp:121] Top shape: 16 4096 9 9 (5308416)
I1122 05:17:14.079169  9840 layer_factory.hpp:74] Creating layer relu6
I1122 05:17:14.079180  9840 net.cpp:85] Creating Layer relu6
I1122 05:17:14.079185  9840 net.cpp:381] relu6 <- fc6
I1122 05:17:14.079192  9840 net.cpp:328] relu6 -> fc6 (in-place)
I1122 05:17:14.079200  9840 net.cpp:114] Setting up relu6
I1122 05:17:14.079205  9840 net.cpp:121] Top shape: 16 4096 9 9 (5308416)
I1122 05:17:14.079208  9840 layer_factory.hpp:74] Creating layer drop6
I1122 05:17:14.079215  9840 net.cpp:85] Creating Layer drop6
I1122 05:17:14.079218  9840 net.cpp:381] drop6 <- fc6
I1122 05:17:14.079222  9840 net.cpp:328] drop6 -> fc6 (in-place)
I1122 05:17:14.079227  9840 net.cpp:114] Setting up drop6
I1122 05:17:14.079233  9840 net.cpp:121] Top shape: 16 4096 9 9 (5308416)
I1122 05:17:14.079236  9840 layer_factory.hpp:74] Creating layer fc7
I1122 05:17:14.079243  9840 net.cpp:85] Creating Layer fc7
I1122 05:17:14.079247  9840 net.cpp:381] fc7 <- fc6
I1122 05:17:14.079253  9840 net.cpp:339] fc7 -> fc7
I1122 05:17:14.079259  9840 net.cpp:114] Setting up fc7
I1122 05:17:14.098986  9840 net.cpp:121] Top shape: 16 4096 9 9 (5308416)
I1122 05:17:14.099017  9840 layer_factory.hpp:74] Creating layer relu7
I1122 05:17:14.099027  9840 net.cpp:85] Creating Layer relu7
I1122 05:17:14.099032  9840 net.cpp:381] relu7 <- fc7
I1122 05:17:14.099040  9840 net.cpp:328] relu7 -> fc7 (in-place)
I1122 05:17:14.099046  9840 net.cpp:114] Setting up relu7
I1122 05:17:14.099051  9840 net.cpp:121] Top shape: 16 4096 9 9 (5308416)
I1122 05:17:14.099056  9840 layer_factory.hpp:74] Creating layer drop7
I1122 05:17:14.099062  9840 net.cpp:85] Creating Layer drop7
I1122 05:17:14.099066  9840 net.cpp:381] drop7 <- fc7
I1122 05:17:14.099069  9840 net.cpp:328] drop7 -> fc7 (in-place)
I1122 05:17:14.099074  9840 net.cpp:114] Setting up drop7
I1122 05:17:14.099081  9840 net.cpp:121] Top shape: 16 4096 9 9 (5308416)
I1122 05:17:14.099083  9840 layer_factory.hpp:74] Creating layer score2
I1122 05:17:14.099089  9840 net.cpp:85] Creating Layer score2
I1122 05:17:14.099092  9840 net.cpp:381] score2 <- fc7
I1122 05:17:14.099099  9840 net.cpp:339] score2 -> score2
I1122 05:17:14.099105  9840 net.cpp:114] Setting up score2
I1122 05:17:14.099128  9840 net.cpp:121] Top shape: 16 2 9 9 (2592)
I1122 05:17:14.099133  9840 layer_factory.hpp:74] Creating layer upscore-hand2
I1122 05:17:14.099143  9840 net.cpp:85] Creating Layer upscore-hand2
I1122 05:17:14.099146  9840 net.cpp:381] upscore-hand2 <- score2
I1122 05:17:14.099153  9840 net.cpp:339] upscore-hand2 -> upscore-hand2
I1122 05:17:14.099159  9840 net.cpp:114] Setting up upscore-hand2
I1122 05:17:14.099202  9840 net.cpp:121] Top shape: 16 2 320 320 (3276800)
I1122 05:17:14.099215  9840 layer_factory.hpp:74] Creating layer score
I1122 05:17:14.099223  9840 net.cpp:85] Creating Layer score
I1122 05:17:14.099227  9840 net.cpp:381] score <- upscore-hand2
I1122 05:17:14.099231  9840 net.cpp:381] score <- image_data_slice_data_0_split_1
I1122 05:17:14.099237  9840 net.cpp:339] score -> score
I1122 05:17:14.099243  9840 net.cpp:114] Setting up score
I1122 05:17:14.099293  9840 net.cpp:121] Top shape: 16 2 256 256 (2097152)
I1122 05:17:14.099299  9840 layer_factory.hpp:74] Creating layer loss
I1122 05:17:14.099308  9840 net.cpp:85] Creating Layer loss
I1122 05:17:14.099311  9840 net.cpp:381] loss <- score
I1122 05:17:14.099315  9840 net.cpp:381] loss <- object_heatmap
I1122 05:17:14.099321  9840 net.cpp:339] loss -> loss
I1122 05:17:14.099328  9840 net.cpp:114] Setting up loss
I1122 05:17:14.099333  9840 layer_factory.hpp:74] Creating layer loss
…
