…
net: ".fcn32_obj_train.prototxt"
iter_size: 1
I1123 08:20:36.968178 10765 solver.cpp:70] Creating training net from net file: .fcn32_obj_train.prototxt
I1123 08:20:36.969184 10765 net.cpp:42] Initializing net from parameters: 
name: "FCN"
state {
  phase: TRAIN
}
layer {
  name: "raw_data"
  type: "HandObjectData"
  top: "raw_data"
  include {
    phase: TRAIN
  }
  transform_param {
  }
  hand_object_data_param {
    source: "data.txt"
    shuffle: true
    mean_value: 104.00699
    mean_value: 116.66877
    mean_value: 122.67892
    batch_size: 16
    show_level: 2
  }
}
layer {
  name: "slice_data"
  type: "Slice"
  bottom: "raw_data"
  top: "image_data"
  top: "object_heatmap"
  top: "hand_heatmap"
  slice_param {
    slice_point: 3
    slice_point: 4
    axis: 1
  }
}
layer {
  name: "conv1_1"
  type: "Convolution"
  bottom: "image_data"
  top: "conv1_1"
  param {
    lr_mult: 1
    decay_mult: 1
  }
  param {
    lr_mult: 2
    decay_mult: 0
  }
  convolution_param {
    num_output: 64
    pad: 100
    kernel_size: 3
    engine: CAFFE
  }
}
layer {
  name: "relu1_1"
  type: "ReLU"
  bottom: "conv1_1"
  top: "conv1_1"
}
layer {
  name: "conv1_2"
  type: "Convolution"
  bottom: "conv1_1"
  top: "conv1_2"
  param {
    lr_mult: 1
    decay_mult: 1
  }
  param {
    lr_mult: 2
    decay_mult: 0
  }
  convolution_param {
    num_output: 64
    pad: 1
    kernel_size: 3
    engine: CAFFE
  }
}
layer {
  name: "relu1_2"
  type: "ReLU"
  bottom: "conv1_2"
  top: "conv1_2"
}
layer {
  name: "pool1"
  type: "Pooling"
  bottom: "conv1_2"
  top: "pool1"
  pooling_param {
    pool: MAX
    kernel_size: 2
    stride: 2
  }
}
layer {
  name: "conv2_1"
  type: "Convolution"
  bottom: "pool1"
  top: "conv2_1"
  param {
    lr_mult: 1
    decay_mult: 1
  }
  param {
    lr_mult: 2
    decay_mult: 0
  }
  convolution_param {
    num_output: 128
    pad: 1
    kernel_size: 3
    engine: CAFFE
  }
}
layer {
  name: "relu2_1"
  type: "ReLU"
  bottom: "conv2_1"
  top: "conv2_1"
}
layer {
  name: "conv2_2"
  type: "Convolution"
  bottom: "conv2_1"
  top: "conv2_2"
  param {
    lr_mult: 1
    decay_mult: 1
  }
  param {
    lr_mult: 2
    decay_mult: 0
  }
  convolution_param {
    num_output: 128
    pad: 1
    kernel_size: 3
    engine: CAFFE
  }
}
layer {
  name: "relu2_2"
  type: "ReLU"
  bottom: "conv2_2"
  top: "conv2_2"
}
layer {
  name: "pool2"
  type: "Pooling"
  bottom: "conv2_2"
  top: "pool2"
  pooling_param {
    pool: MAX
    kernel_size: 2
    stride: 2
  }
}
layer {
  name: "conv3_1"
  type: "Convolution"
  bottom: "pool2"
  top: "conv3_1"
  param {
    lr_mult: 1
    decay_mult: 1
  }
  param {
    lr_mult: 2
    decay_mult: 0
  }
  convolution_param {
    num_output: 256
    pad: 1
    kernel_size: 3
    engine: CAFFE
  }
}
layer {
  name: "relu3_1"
  type: "ReLU"
  bottom: "conv3_1"
  top: "conv3_1"
}
layer {
  name: "conv3_2"
  type: "Convolution"
  bottom: "conv3_1"
  top: "conv3_2"
  param {
    lr_mult: 1
    decay_mult: 1
  }
  param {
    lr_mult: 2
    decay_mult: 0
  }
  convolution_param {
    num_output: 256
    pad: 1
    kernel_size: 3
    engine: CAFFE
  }
}
layer {
  name: "relu3_2"
  type: "ReLU"
  bottom: "conv3_2"
  top: "conv3_2"
}
layer {
  name: "conv3_3"
  type: "Convolution"
  bottom: "conv3_2"
  top: "conv3_3"
  param {
    lr_mult: 1
    decay_mult: 1
  }
  param {
    lr_mult: 2
    decay_mult: 0
  }
  convolution_param {
    num_output: 256
    pad: 1
    kernel_size: 3
    engine: CAFFE
  }
}
layer {
  name: "relu3_3"
  type: "ReLU"
  bottom: "conv3_3"
  top: "conv3_3"
}
layer {
  name: "pool3"
  type: "Pooling"
  bottom: "conv3_3"
  top: "pool3"
  pooling_param {
    pool: MAX
    kernel_size: 2
    stride: 2
  }
}
layer {
  name: "conv4_1"
  type: "Convolution"
  bottom: "pool3"
  top: "conv4_1"
  param {
    lr_mult: 1
    decay_mult: 1
  }
  param {
    lr_mult: 2
    decay_mult: 0
  }
  convolution_param {
    num_output: 512
    pad: 1
    kernel_size: 3
    engine: CAFFE
  }
}
layer {
  name: "relu4_1"
  type: "ReLU"
  bottom: "conv4_1"
  top: "conv4_1"
}
layer {
  name: "conv4_2"
  type: "Convolution"
  bottom: "conv4_1"
  top: "conv4_2"
  param {
    lr_mult: 1
    decay_mult: 1
  }
  param {
    lr_mult: 2
    decay_mult: 0
  }
  convolution_param {
    num_output: 512
    pad: 1
    kernel_size: 3
    engine: CAFFE
  }
}
layer {
  name: "relu4_2"
  type: "ReLU"
  bottom: "conv4_2"
  top: "conv4_2"
}
layer {
  name: "conv4_3"
  type: "Convolution"
  bottom: "conv4_2"
  top: "conv4_3"
  param {
    lr_mult: 1
    decay_mult: 1
  }
  param {
    lr_mult: 2
    decay_mult: 0
  }
  convolution_param {
    num_output: 512
    pad: 1
    kernel_size: 3
    engine: CAFFE
  }
}
layer {
  name: "relu4_3"
  type: "ReLU"
  bottom: "conv4_3"
  top: "conv4_3"
}
layer {
  name: "pool4"
  type: "Pooling"
  bottom: "conv4_3"
  top: "pool4"
  pooling_param {
    pool: MAX
    kernel_size: 2
    stride: 2
  }
}
layer {
  name: "conv5_1"
  type: "Convolution"
  bottom: "pool4"
  top: "conv5_1"
  param {
    lr_mult: 1
    decay_mult: 1
  }
  param {
    lr_mult: 2
    decay_mult: 0
  }
  convolution_param {
    num_output: 512
    pad: 1
    kernel_size: 3
    engine: CAFFE
  }
}
layer {
  name: "relu5_1"
  type: "ReLU"
  bottom: "conv5_1"
  top: "conv5_1"
}
layer {
  name: "conv5_2"
  type: "Convolution"
  bottom: "conv5_1"
  top: "conv5_2"
  param {
    lr_mult: 1
    decay_mult: 1
  }
  param {
    lr_mult: 2
    decay_mult: 0
  }
  convolution_param {
    num_output: 512
    pad: 1
    kernel_size: 3
    engine: CAFFE
  }
}
layer {
  name: "relu5_2"
  type: "ReLU"
  bottom: "conv5_2"
  top: "conv5_2"
}
layer {
  name: "conv5_3"
  type: "Convolution"
  bottom: "conv5_2"
  top: "conv5_3"
  param {
    lr_mult: 1
    decay_mult: 1
  }
  param {
    lr_mult: 2
    decay_mult: 0
  }
  convolution_param {
    num_output: 512
    pad: 1
    kernel_size: 3
    engine: CAFFE
  }
}
layer {
  name: "relu5_3"
  type: "ReLU"
  bottom: "conv5_3"
  top: "conv5_3"
}
layer {
  name: "pool5"
  type: "Pooling"
  bottom: "conv5_3"
  top: "pool5"
  pooling_param {
    pool: MAX
    kernel_size: 2
    stride: 2
  }
}
layer {
  name: "fc6"
  type: "Convolution"
  bottom: "pool5"
  top: "fc6"
  param {
    lr_mult: 1
    decay_mult: 1
  }
  param {
    lr_mult: 2
    decay_mult: 0
  }
  convolution_param {
    num_output: 4096
    kernel_size: 7
    engine: CAFFE
  }
}
layer {
  name: "relu6"
  type: "ReLU"
  bottom: "fc6"
  top: "fc6"
}
layer {
  name: "drop6"
  type: "Dropout"
  bottom: "fc6"
  top: "fc6"
  dropout_param {
    dropout_ratio: 0.5
  }
}
layer {
  name: "fc7"
  type: "Convolution"
  bottom: "fc6"
  top: "fc7"
  param {
    lr_mult: 1
    decay_mult: 1
  }
  param {
    lr_mult: 2
    decay_mult: 0
  }
  convolution_param {
    num_output: 4096
    kernel_size: 1
    engine: CAFFE
  }
}
layer {
  name: "relu7"
  type: "ReLU"
  bottom: "fc7"
  top: "fc7"
}
layer {
  name: "drop7"
  type: "Dropout"
  bottom: "fc7"
  top: "fc7"
  dropout_param {
    dropout_ratio: 0.5
  }
}
layer {
  name: "score2"
  type: "Convolution"
  bottom: "fc7"
  top: "score2"
  param {
    lr_mult: 1
    decay_mult: 1
  }
  param {
    lr_mult: 2
    decay_mult: 0
  }
  convolution_param {
    num_output: 5
    kernel_size: 1
    engine: CAFFE
  }
}
layer {
  name: "upscore-hand2"
  type: "Deconvolution"
  bottom: "score2"
  top: "upscore-hand2"
  param {
    lr_mult: 0
  }
  convolution_param {
    num_output: 5
    bias_term: false
    kernel_size: 64
    stride: 32
  }
}
layer {
  name: "score"
  type: "Crop"
  bottom: "upscore-hand2"
  bottom: "image_data"
  top: "score"
}
layer {
  name: "slice_score"
  type: "Slice"
  bottom: "score"
  top: "object_score"
  top: "hand_score"
  slice_param {
    slice_point: 2
    axis: 1
  }
}
layer {
  name: "object_loss"
  type: "SoftmaxWithLoss"
  bottom: "object_score"
  bottom: "object_heatmap"
  top: "object_loss"
  loss_weight: 0.5
  loss_param {
    normalize: false
  }
}
layer {
  name: "hand_loss"
  type: "SoftmaxWithLoss"
  bottom: "hand_score"
  bottom: "hand_heatmap"
  top: "hand_loss"
  loss_weight: 0.5
  loss_param {
    normalize: false
  }
}
I1123 08:20:36.969434 10765 layer_factory.hpp:74] Creating layer raw_data
I1123 08:20:36.969466 10765 net.cpp:85] Creating Layer raw_data
I1123 08:20:36.969475 10765 net.cpp:339] raw_data -> raw_data
I1123 08:20:36.969490 10765 net.cpp:114] Setting up raw_data
I1123 08:20:36.969497 10765 hand_object_data_layer.cpp:42] Opening file data.txt
I1123 08:20:36.971552 10765 hand_object_data_layer.cpp:52] Total number of image pairs: 1255
I1123 08:20:36.971930 10765 hand_object_data_layer.cpp:87] Shuffle images
I1123 08:20:36.973896 10765 hand_object_data_layer.cpp:72] 256,256
I1123 08:20:36.973915 10765 hand_object_data_layer.cpp:80] output data size: 16,5,256,256
I1123 08:20:36.977953 10765 net.cpp:121] Top shape: 16 5 256 256 (5242880)
I1123 08:20:36.977967 10765 layer_factory.hpp:74] Creating layer slice_data
I1123 08:20:36.977985 10765 net.cpp:85] Creating Layer slice_data
I1123 08:20:36.977990 10765 net.cpp:381] slice_data <- raw_data
I1123 08:20:36.977996 10765 net.cpp:339] slice_data -> image_data
I1123 08:20:36.978005 10765 net.cpp:339] slice_data -> object_heatmap
I1123 08:20:36.978013 10765 net.cpp:339] slice_data -> hand_heatmap
I1123 08:20:36.978018 10765 net.cpp:114] Setting up slice_data
I1123 08:20:36.978027 10765 net.cpp:121] Top shape: 16 3 256 256 (3145728)
I1123 08:20:36.978031 10765 net.cpp:121] Top shape: 16 1 256 256 (1048576)
I1123 08:20:36.978035 10765 net.cpp:121] Top shape: 16 1 256 256 (1048576)
I1123 08:20:36.978040 10765 layer_factory.hpp:74] Creating layer image_data_slice_data_0_split
I1123 08:20:36.978046 10765 net.cpp:85] Creating Layer image_data_slice_data_0_split
I1123 08:20:36.978050 10765 net.cpp:381] image_data_slice_data_0_split <- image_data
I1123 08:20:36.978055 10765 net.cpp:339] image_data_slice_data_0_split -> image_data_slice_data_0_split_0
I1123 08:20:36.978061 10765 net.cpp:339] image_data_slice_data_0_split -> image_data_slice_data_0_split_1
I1123 08:20:36.978067 10765 net.cpp:114] Setting up image_data_slice_data_0_split
I1123 08:20:36.978073 10765 net.cpp:121] Top shape: 16 3 256 256 (3145728)
I1123 08:20:36.978077 10765 net.cpp:121] Top shape: 16 3 256 256 (3145728)
I1123 08:20:36.978080 10765 layer_factory.hpp:74] Creating layer conv1_1
I1123 08:20:36.978087 10765 net.cpp:85] Creating Layer conv1_1
I1123 08:20:36.978091 10765 net.cpp:381] conv1_1 <- image_data_slice_data_0_split_0
I1123 08:20:36.978096 10765 net.cpp:339] conv1_1 -> conv1_1
I1123 08:20:36.978101 10765 net.cpp:114] Setting up conv1_1
I1123 08:20:36.978437 10765 net.cpp:121] Top shape: 16 64 454 454 (211062784)
I1123 08:20:36.978452 10765 layer_factory.hpp:74] Creating layer relu1_1
I1123 08:20:36.978459 10765 net.cpp:85] Creating Layer relu1_1
I1123 08:20:36.978464 10765 net.cpp:381] relu1_1 <- conv1_1
I1123 08:20:36.978471 10765 net.cpp:328] relu1_1 -> conv1_1 (in-place)
I1123 08:20:36.978477 10765 net.cpp:114] Setting up relu1_1
I1123 08:20:36.978483 10765 net.cpp:121] Top shape: 16 64 454 454 (211062784)
I1123 08:20:36.978487 10765 layer_factory.hpp:74] Creating layer conv1_2
I1123 08:20:36.978492 10765 net.cpp:85] Creating Layer conv1_2
I1123 08:20:36.978494 10765 net.cpp:381] conv1_2 <- conv1_1
I1123 08:20:36.978500 10765 net.cpp:339] conv1_2 -> conv1_2
I1123 08:20:36.978507 10765 net.cpp:114] Setting up conv1_2
I1123 08:20:36.978947 10765 net.cpp:121] Top shape: 16 64 454 454 (211062784)
I1123 08:20:36.978960 10765 layer_factory.hpp:74] Creating layer relu1_2
I1123 08:20:36.978965 10765 net.cpp:85] Creating Layer relu1_2
I1123 08:20:36.978970 10765 net.cpp:381] relu1_2 <- conv1_2
I1123 08:20:36.978974 10765 net.cpp:328] relu1_2 -> conv1_2 (in-place)
I1123 08:20:36.978981 10765 net.cpp:114] Setting up relu1_2
I1123 08:20:36.978986 10765 net.cpp:121] Top shape: 16 64 454 454 (211062784)
I1123 08:20:36.978988 10765 layer_factory.hpp:74] Creating layer pool1
I1123 08:20:36.978994 10765 net.cpp:85] Creating Layer pool1
I1123 08:20:36.978997 10765 net.cpp:381] pool1 <- conv1_2
I1123 08:20:36.979002 10765 net.cpp:339] pool1 -> pool1
I1123 08:20:36.979008 10765 net.cpp:114] Setting up pool1
I1123 08:20:36.979015 10765 net.cpp:121] Top shape: 16 64 227 227 (52765696)
I1123 08:20:36.979019 10765 layer_factory.hpp:74] Creating layer conv2_1
I1123 08:20:36.979027 10765 net.cpp:85] Creating Layer conv2_1
I1123 08:20:36.979030 10765 net.cpp:381] conv2_1 <- pool1
I1123 08:20:36.979035 10765 net.cpp:339] conv2_1 -> conv2_1
I1123 08:20:36.979040 10765 net.cpp:114] Setting up conv2_1
I1123 08:20:36.979269 10765 net.cpp:121] Top shape: 16 128 227 227 (105531392)
I1123 08:20:36.979282 10765 layer_factory.hpp:74] Creating layer relu2_1
I1123 08:20:36.979288 10765 net.cpp:85] Creating Layer relu2_1
I1123 08:20:36.979292 10765 net.cpp:381] relu2_1 <- conv2_1
I1123 08:20:36.979296 10765 net.cpp:328] relu2_1 -> conv2_1 (in-place)
I1123 08:20:36.979302 10765 net.cpp:114] Setting up relu2_1
I1123 08:20:36.979307 10765 net.cpp:121] Top shape: 16 128 227 227 (105531392)
I1123 08:20:36.979310 10765 layer_factory.hpp:74] Creating layer conv2_2
I1123 08:20:36.979316 10765 net.cpp:85] Creating Layer conv2_2
I1123 08:20:36.979320 10765 net.cpp:381] conv2_2 <- conv2_1
I1123 08:20:36.979324 10765 net.cpp:339] conv2_2 -> conv2_2
I1123 08:20:36.979329 10765 net.cpp:114] Setting up conv2_2
I1123 08:20:36.979683 10765 net.cpp:121] Top shape: 16 128 227 227 (105531392)
I1123 08:20:36.979693 10765 layer_factory.hpp:74] Creating layer relu2_2
I1123 08:20:36.979698 10765 net.cpp:85] Creating Layer relu2_2
I1123 08:20:36.979702 10765 net.cpp:381] relu2_2 <- conv2_2
I1123 08:20:36.979707 10765 net.cpp:328] relu2_2 -> conv2_2 (in-place)
I1123 08:20:36.979712 10765 net.cpp:114] Setting up relu2_2
I1123 08:20:36.979717 10765 net.cpp:121] Top shape: 16 128 227 227 (105531392)
I1123 08:20:36.979719 10765 layer_factory.hpp:74] Creating layer pool2
I1123 08:20:36.979727 10765 net.cpp:85] Creating Layer pool2
I1123 08:20:36.979730 10765 net.cpp:381] pool2 <- conv2_2
I1123 08:20:36.979734 10765 net.cpp:339] pool2 -> pool2
I1123 08:20:36.979740 10765 net.cpp:114] Setting up pool2
I1123 08:20:36.979745 10765 net.cpp:121] Top shape: 16 128 114 114 (26615808)
I1123 08:20:36.979749 10765 layer_factory.hpp:74] Creating layer conv3_1
I1123 08:20:36.979756 10765 net.cpp:85] Creating Layer conv3_1
I1123 08:20:36.979760 10765 net.cpp:381] conv3_1 <- pool2
I1123 08:20:36.979764 10765 net.cpp:339] conv3_1 -> conv3_1
I1123 08:20:36.979769 10765 net.cpp:114] Setting up conv3_1
I1123 08:20:36.980306 10765 net.cpp:121] Top shape: 16 256 114 114 (53231616)
I1123 08:20:36.980319 10765 layer_factory.hpp:74] Creating layer relu3_1
I1123 08:20:36.980324 10765 net.cpp:85] Creating Layer relu3_1
I1123 08:20:36.980342 10765 net.cpp:381] relu3_1 <- conv3_1
I1123 08:20:36.980348 10765 net.cpp:328] relu3_1 -> conv3_1 (in-place)
I1123 08:20:36.980355 10765 net.cpp:114] Setting up relu3_1
I1123 08:20:36.980361 10765 net.cpp:121] Top shape: 16 256 114 114 (53231616)
I1123 08:20:36.980365 10765 layer_factory.hpp:74] Creating layer conv3_2
I1123 08:20:36.980370 10765 net.cpp:85] Creating Layer conv3_2
I1123 08:20:36.980373 10765 net.cpp:381] conv3_2 <- conv3_1
I1123 08:20:36.980378 10765 net.cpp:339] conv3_2 -> conv3_2
I1123 08:20:36.980383 10765 net.cpp:114] Setting up conv3_2
I1123 08:20:36.981536 10765 net.cpp:121] Top shape: 16 256 114 114 (53231616)
I1123 08:20:36.981549 10765 layer_factory.hpp:74] Creating layer relu3_2
I1123 08:20:36.981556 10765 net.cpp:85] Creating Layer relu3_2
I1123 08:20:36.981560 10765 net.cpp:381] relu3_2 <- conv3_2
I1123 08:20:36.981565 10765 net.cpp:328] relu3_2 -> conv3_2 (in-place)
I1123 08:20:36.981571 10765 net.cpp:114] Setting up relu3_2
I1123 08:20:36.981576 10765 net.cpp:121] Top shape: 16 256 114 114 (53231616)
I1123 08:20:36.981580 10765 layer_factory.hpp:74] Creating layer conv3_3
I1123 08:20:36.981586 10765 net.cpp:85] Creating Layer conv3_3
I1123 08:20:36.981590 10765 net.cpp:381] conv3_3 <- conv3_2
I1123 08:20:36.981595 10765 net.cpp:339] conv3_3 -> conv3_3
I1123 08:20:36.981600 10765 net.cpp:114] Setting up conv3_3
I1123 08:20:36.982635 10765 net.cpp:121] Top shape: 16 256 114 114 (53231616)
I1123 08:20:36.982645 10765 layer_factory.hpp:74] Creating layer relu3_3
I1123 08:20:36.982652 10765 net.cpp:85] Creating Layer relu3_3
I1123 08:20:36.982656 10765 net.cpp:381] relu3_3 <- conv3_3
I1123 08:20:36.982661 10765 net.cpp:328] relu3_3 -> conv3_3 (in-place)
I1123 08:20:36.982664 10765 net.cpp:114] Setting up relu3_3
I1123 08:20:36.982669 10765 net.cpp:121] Top shape: 16 256 114 114 (53231616)
I1123 08:20:36.982674 10765 layer_factory.hpp:74] Creating layer pool3
I1123 08:20:36.982681 10765 net.cpp:85] Creating Layer pool3
I1123 08:20:36.982684 10765 net.cpp:381] pool3 <- conv3_3
I1123 08:20:36.982688 10765 net.cpp:339] pool3 -> pool3
I1123 08:20:36.982694 10765 net.cpp:114] Setting up pool3
I1123 08:20:36.982700 10765 net.cpp:121] Top shape: 16 256 57 57 (13307904)
I1123 08:20:36.982703 10765 layer_factory.hpp:74] Creating layer conv4_1
I1123 08:20:36.982709 10765 net.cpp:85] Creating Layer conv4_1
I1123 08:20:36.982712 10765 net.cpp:381] conv4_1 <- pool3
I1123 08:20:36.982718 10765 net.cpp:339] conv4_1 -> conv4_1
I1123 08:20:36.982724 10765 net.cpp:114] Setting up conv4_1
I1123 08:20:36.984611 10765 net.cpp:121] Top shape: 16 512 57 57 (26615808)
I1123 08:20:36.984623 10765 layer_factory.hpp:74] Creating layer relu4_1
I1123 08:20:36.984630 10765 net.cpp:85] Creating Layer relu4_1
I1123 08:20:36.984633 10765 net.cpp:381] relu4_1 <- conv4_1
I1123 08:20:36.984639 10765 net.cpp:328] relu4_1 -> conv4_1 (in-place)
I1123 08:20:36.984645 10765 net.cpp:114] Setting up relu4_1
I1123 08:20:36.984649 10765 net.cpp:121] Top shape: 16 512 57 57 (26615808)
I1123 08:20:36.984653 10765 layer_factory.hpp:74] Creating layer conv4_2
I1123 08:20:36.984658 10765 net.cpp:85] Creating Layer conv4_2
I1123 08:20:36.984661 10765 net.cpp:381] conv4_2 <- conv4_1
I1123 08:20:36.984666 10765 net.cpp:339] conv4_2 -> conv4_2
I1123 08:20:36.984671 10765 net.cpp:114] Setting up conv4_2
I1123 08:20:36.987820 10765 net.cpp:121] Top shape: 16 512 57 57 (26615808)
I1123 08:20:36.987836 10765 layer_factory.hpp:74] Creating layer relu4_2
I1123 08:20:36.987843 10765 net.cpp:85] Creating Layer relu4_2
I1123 08:20:36.987846 10765 net.cpp:381] relu4_2 <- conv4_2
I1123 08:20:36.987851 10765 net.cpp:328] relu4_2 -> conv4_2 (in-place)
I1123 08:20:36.987855 10765 net.cpp:114] Setting up relu4_2
I1123 08:20:36.987860 10765 net.cpp:121] Top shape: 16 512 57 57 (26615808)
I1123 08:20:36.987864 10765 layer_factory.hpp:74] Creating layer conv4_3
I1123 08:20:36.987870 10765 net.cpp:85] Creating Layer conv4_3
I1123 08:20:36.987874 10765 net.cpp:381] conv4_3 <- conv4_2
I1123 08:20:36.987879 10765 net.cpp:339] conv4_3 -> conv4_3
I1123 08:20:36.987884 10765 net.cpp:114] Setting up conv4_3
I1123 08:20:36.990659 10765 net.cpp:121] Top shape: 16 512 57 57 (26615808)
I1123 08:20:36.990671 10765 layer_factory.hpp:74] Creating layer relu4_3
I1123 08:20:36.990677 10765 net.cpp:85] Creating Layer relu4_3
I1123 08:20:36.990680 10765 net.cpp:381] relu4_3 <- conv4_3
I1123 08:20:36.990689 10765 net.cpp:328] relu4_3 -> conv4_3 (in-place)
I1123 08:20:36.990694 10765 net.cpp:114] Setting up relu4_3
I1123 08:20:36.990697 10765 net.cpp:121] Top shape: 16 512 57 57 (26615808)
I1123 08:20:36.990701 10765 layer_factory.hpp:74] Creating layer pool4
I1123 08:20:36.990707 10765 net.cpp:85] Creating Layer pool4
I1123 08:20:36.990710 10765 net.cpp:381] pool4 <- conv4_3
I1123 08:20:36.990715 10765 net.cpp:339] pool4 -> pool4
I1123 08:20:36.990720 10765 net.cpp:114] Setting up pool4
I1123 08:20:36.990727 10765 net.cpp:121] Top shape: 16 512 29 29 (6889472)
I1123 08:20:36.990731 10765 layer_factory.hpp:74] Creating layer conv5_1
I1123 08:20:36.990736 10765 net.cpp:85] Creating Layer conv5_1
I1123 08:20:36.990739 10765 net.cpp:381] conv5_1 <- pool4
I1123 08:20:36.990743 10765 net.cpp:339] conv5_1 -> conv5_1
I1123 08:20:36.990749 10765 net.cpp:114] Setting up conv5_1
I1123 08:20:36.993870 10765 net.cpp:121] Top shape: 16 512 29 29 (6889472)
I1123 08:20:36.993883 10765 layer_factory.hpp:74] Creating layer relu5_1
I1123 08:20:36.993890 10765 net.cpp:85] Creating Layer relu5_1
I1123 08:20:36.993893 10765 net.cpp:381] relu5_1 <- conv5_1
I1123 08:20:36.993898 10765 net.cpp:328] relu5_1 -> conv5_1 (in-place)
I1123 08:20:36.993902 10765 net.cpp:114] Setting up relu5_1
I1123 08:20:36.993907 10765 net.cpp:121] Top shape: 16 512 29 29 (6889472)
I1123 08:20:36.993911 10765 layer_factory.hpp:74] Creating layer conv5_2
I1123 08:20:36.993916 10765 net.cpp:85] Creating Layer conv5_2
I1123 08:20:36.993919 10765 net.cpp:381] conv5_2 <- conv5_1
I1123 08:20:36.993929 10765 net.cpp:339] conv5_2 -> conv5_2
I1123 08:20:36.993935 10765 net.cpp:114] Setting up conv5_2
I1123 08:20:36.996816 10765 net.cpp:121] Top shape: 16 512 29 29 (6889472)
I1123 08:20:36.996830 10765 layer_factory.hpp:74] Creating layer relu5_2
I1123 08:20:36.996837 10765 net.cpp:85] Creating Layer relu5_2
I1123 08:20:36.996840 10765 net.cpp:381] relu5_2 <- conv5_2
I1123 08:20:36.996850 10765 net.cpp:328] relu5_2 -> conv5_2 (in-place)
I1123 08:20:36.996855 10765 net.cpp:114] Setting up relu5_2
I1123 08:20:36.996860 10765 net.cpp:121] Top shape: 16 512 29 29 (6889472)
I1123 08:20:36.996862 10765 layer_factory.hpp:74] Creating layer conv5_3
I1123 08:20:36.996868 10765 net.cpp:85] Creating Layer conv5_3
I1123 08:20:36.996871 10765 net.cpp:381] conv5_3 <- conv5_2
I1123 08:20:36.996877 10765 net.cpp:339] conv5_3 -> conv5_3
I1123 08:20:36.996882 10765 net.cpp:114] Setting up conv5_3
I1123 08:20:36.999655 10765 net.cpp:121] Top shape: 16 512 29 29 (6889472)
I1123 08:20:36.999667 10765 layer_factory.hpp:74] Creating layer relu5_3
I1123 08:20:36.999678 10765 net.cpp:85] Creating Layer relu5_3
I1123 08:20:36.999682 10765 net.cpp:381] relu5_3 <- conv5_3
I1123 08:20:36.999688 10765 net.cpp:328] relu5_3 -> conv5_3 (in-place)
I1123 08:20:36.999693 10765 net.cpp:114] Setting up relu5_3
I1123 08:20:36.999701 10765 net.cpp:121] Top shape: 16 512 29 29 (6889472)
I1123 08:20:36.999703 10765 layer_factory.hpp:74] Creating layer pool5
I1123 08:20:36.999709 10765 net.cpp:85] Creating Layer pool5
I1123 08:20:36.999712 10765 net.cpp:381] pool5 <- conv5_3
I1123 08:20:36.999718 10765 net.cpp:339] pool5 -> pool5
I1123 08:20:36.999724 10765 net.cpp:114] Setting up pool5
I1123 08:20:36.999732 10765 net.cpp:121] Top shape: 16 512 15 15 (1843200)
I1123 08:20:36.999734 10765 layer_factory.hpp:74] Creating layer fc6
I1123 08:20:36.999743 10765 net.cpp:85] Creating Layer fc6
I1123 08:20:36.999747 10765 net.cpp:381] fc6 <- pool5
I1123 08:20:36.999753 10765 net.cpp:339] fc6 -> fc6
I1123 08:20:36.999759 10765 net.cpp:114] Setting up fc6
I1123 08:20:37.116490 10765 net.cpp:121] Top shape: 16 4096 9 9 (5308416)
I1123 08:20:37.116518 10765 layer_factory.hpp:74] Creating layer relu6
I1123 08:20:37.116529 10765 net.cpp:85] Creating Layer relu6
I1123 08:20:37.116534 10765 net.cpp:381] relu6 <- fc6
I1123 08:20:37.116542 10765 net.cpp:328] relu6 -> fc6 (in-place)
I1123 08:20:37.116549 10765 net.cpp:114] Setting up relu6
I1123 08:20:37.116554 10765 net.cpp:121] Top shape: 16 4096 9 9 (5308416)
I1123 08:20:37.116559 10765 layer_factory.hpp:74] Creating layer drop6
I1123 08:20:37.116565 10765 net.cpp:85] Creating Layer drop6
I1123 08:20:37.116569 10765 net.cpp:381] drop6 <- fc6
I1123 08:20:37.116574 10765 net.cpp:328] drop6 -> fc6 (in-place)
I1123 08:20:37.116578 10765 net.cpp:114] Setting up drop6
I1123 08:20:37.116583 10765 net.cpp:121] Top shape: 16 4096 9 9 (5308416)
I1123 08:20:37.116586 10765 layer_factory.hpp:74] Creating layer fc7
I1123 08:20:37.116593 10765 net.cpp:85] Creating Layer fc7
I1123 08:20:37.116596 10765 net.cpp:381] fc7 <- fc6
I1123 08:20:37.116600 10765 net.cpp:339] fc7 -> fc7
I1123 08:20:37.116607 10765 net.cpp:114] Setting up fc7
I1123 08:20:37.135923 10765 net.cpp:121] Top shape: 16 4096 9 9 (5308416)
I1123 08:20:37.135952 10765 layer_factory.hpp:74] Creating layer relu7
I1123 08:20:37.135962 10765 net.cpp:85] Creating Layer relu7
I1123 08:20:37.135967 10765 net.cpp:381] relu7 <- fc7
I1123 08:20:37.135974 10765 net.cpp:328] relu7 -> fc7 (in-place)
I1123 08:20:37.135982 10765 net.cpp:114] Setting up relu7
I1123 08:20:37.135987 10765 net.cpp:121] Top shape: 16 4096 9 9 (5308416)
I1123 08:20:37.135990 10765 layer_factory.hpp:74] Creating layer drop7
I1123 08:20:37.135996 10765 net.cpp:85] Creating Layer drop7
I1123 08:20:37.135999 10765 net.cpp:381] drop7 <- fc7
I1123 08:20:37.136003 10765 net.cpp:328] drop7 -> fc7 (in-place)
I1123 08:20:37.136008 10765 net.cpp:114] Setting up drop7
I1123 08:20:37.136013 10765 net.cpp:121] Top shape: 16 4096 9 9 (5308416)
I1123 08:20:37.136016 10765 layer_factory.hpp:74] Creating layer score2
I1123 08:20:37.136023 10765 net.cpp:85] Creating Layer score2
I1123 08:20:37.136026 10765 net.cpp:381] score2 <- fc7
I1123 08:20:37.136032 10765 net.cpp:339] score2 -> score2
I1123 08:20:37.136039 10765 net.cpp:114] Setting up score2
I1123 08:20:37.136093 10765 net.cpp:121] Top shape: 16 5 9 9 (6480)
I1123 08:20:37.136101 10765 layer_factory.hpp:74] Creating layer upscore-hand2
I1123 08:20:37.136107 10765 net.cpp:85] Creating Layer upscore-hand2
I1123 08:20:37.136111 10765 net.cpp:381] upscore-hand2 <- score2
I1123 08:20:37.136116 10765 net.cpp:339] upscore-hand2 -> upscore-hand2
I1123 08:20:37.136122 10765 net.cpp:114] Setting up upscore-hand2
I1123 08:20:37.136304 10765 net.cpp:121] Top shape: 16 5 320 320 (8192000)
I1123 08:20:37.136320 10765 layer_factory.hpp:74] Creating layer score
I1123 08:20:37.136334 10765 net.cpp:85] Creating Layer score
I1123 08:20:37.136339 10765 net.cpp:381] score <- upscore-hand2
I1123 08:20:37.136344 10765 net.cpp:381] score <- image_data_slice_data_0_split_1
I1123 08:20:37.136349 10765 net.cpp:339] score -> score
I1123 08:20:37.136355 10765 net.cpp:114] Setting up score
I1123 08:20:37.136409 10765 net.cpp:121] Top shape: 16 5 256 256 (5242880)
I1123 08:20:37.136422 10765 layer_factory.hpp:74] Creating layer slice_score
I1123 08:20:37.136430 10765 net.cpp:85] Creating Layer slice_score
I1123 08:20:37.136433 10765 net.cpp:381] slice_score <- score
I1123 08:20:37.136440 10765 net.cpp:339] slice_score -> object_score
I1123 08:20:37.136445 10765 net.cpp:339] slice_score -> hand_score
I1123 08:20:37.136451 10765 net.cpp:114] Setting up slice_score
I1123 08:20:37.136458 10765 net.cpp:121] Top shape: 16 2 256 256 (2097152)
I1123 08:20:37.136463 10765 net.cpp:121] Top shape: 16 3 256 256 (3145728)
I1123 08:20:37.136468 10765 layer_factory.hpp:74] Creating layer object_loss
I1123 08:20:37.136474 10765 net.cpp:85] Creating Layer object_loss
I1123 08:20:37.136477 10765 net.cpp:381] object_loss <- object_score
I1123 08:20:37.136482 10765 net.cpp:381] object_loss <- object_heatmap
I1123 08:20:37.136487 10765 net.cpp:339] object_loss -> object_loss
I1123 08:20:37.136492 10765 net.cpp:114] Setting up object_loss
…
